Model/Models/GRU_0.ckpt (torch, 177599 bytes, 11 tensors)

hist_encoder.weight_ih_l0 f4 [192, 5]
000000 60 b7 49 bd ee 28 98 bb 29 1c f0 3b a1 35 9b 3d
       -0.049247146 -0.004643551 0.0073275757 0.07578588
000010 c2 cd d0 bd f5 ad 4b 3e 29 0e 9d bc ff ed a8 bd
       -0.10195495 0.19890578 -0.019171791 -0.08248519
000020 58 7c 13 be 8f 8e 4c 3c 65 0a 87 3d 96 78 17 bd
       -0.14402902 0.0124851605 0.065937795 -0.036980234
000030 61 2d 26 3d 75 a4 98 3d 4e 5d 27 3d b6 ad 8c 3d
       0.04057062 0.07453243 0.040860467 0.0686907
000040 12 1f 72 bd 2e 7e 0f 3d df b4 cf 3c 70 01 6c 3d
       -0.059111662 0.035032444 0.0253548 0.05761856
000050 3e 5c c9 3d 40 d3 dd 37 e6 57 75 3e a1 26 2c 3e
       0.09832047 2.6443624e-05 0.23959312 0.16811611
000060 97 58 5b be 1e 6e c6 3d 9a ef 42 bd 3c 8c 97 3d
       -0.21420513 0.09688972 -0.047591783 0.073997945
000070 d0 c6 0d 3e 6b d1 a5 bd a0 fa de bc e3 2f 8d bc
       0.13845372 -0.08096584 -0.027219117 -0.017234748
000080 ca bd ba 3e 90 0f 8c 3e 1b ba df 3d a7 97 01 bd
       0.36472923 0.27355623 0.10924169 -0.031638768
000090 2a b5 22 bd 99 50 ab 3e da a1 26 be e0 5f 0f 3e
       -0.039723553 0.3345993 -0.16272679 0.14001417
0000a0 9e e8 c7 bd c7 8e e4 bd 92 d1 40 3b 26 48 35 3e
       -0.09761165 -0.11160045 0.0029421789 0.17703304
0000b0 a1 09 60 3d 3a 94 01 3a 8e 32 47 3d 65 d6 91 3d
       0.054696683 0.0004943047 0.048632197 0.07120971
0000c0 f0 8c 37 3d 44 50 04 3e ed ef a1 3c de e3 40 3d
       0.044812143 0.12921244 0.019767726 0.04709231
0000d0 41 f7 b9 3d 48 24 a3 3d f3 14 71 bc ba c1 9c bd
       0.09080363 0.079659045 -0.014714467 -0.07654138
0000e0 fb 58 45 bd c5 b0 1c 3e 44 ee 79 bc 71 fb 2d be
       -0.04818056 0.15301807 -0.015254561 -0.16990449
0000f0 8b 91 55 3c 73 c0 c0 3d 0a 4b 3f be f1 70 e9 bd
       0.013035188 0.09411707 -0.18680969 -0.11398495
000100 e2 57 06 bd d6 31 7a 3d 0a 4b 9b bc 20 5f a8 3b
       -0.032798655 0.061082684 -0.01895668 0.005138293
000110 33 4e ab bc 70 14 00 3e bf 28 29 3e bb 2b c3 3d
       -0.020911312 0.12507796 0.1651945 0.09529825
000120 73 0a ba bd 82 30 1c 3c d4 a8 e6 3d c6 8d 87 bd
       -0.09084024 0.00953305 0.1126267 -0.06618838
000130 e0 05 a7 3d 90 a6 bb bd c2 55 47 bc d1 49 18 3e
       0.081554174 -0.09162629 -0.012166442 0.14871909
000140 69 5c d3 3d f2 5d f4 3a d2 3f 23 3d 73 2e 52 bd
       0.1032036 0.001864372 0.039855786 -0.05131383
000150 40 90 c8 bd bd ae 7e 3d cb 62 05 be 98 d6 b5 3e
       -0.097931385 0.062178362 -0.13025968 0.35515285
000160 ff a5 a3 3e d8 61 d1 3d 32 21 21 bc f6 1a 2b 3e
       0.31962582 0.1022374 -0.009834575 0.16709504
000170 97 cd 4a 3d 85 18 8b 3d 42 88 b6 bd 48 25 0b 3e
       0.049512472 0.06791786 -0.08912708 0.1358844
000180 ea af 35 3e 54 ad 6b 3d 16 3d 70 3d 3e 7b 91 bd
       0.17742887 0.057538345 0.058652006 -0.07103585
000190 b3 c0 9d 3d 77 e2 0a be 9c 5a cb bc de 66 fd bc
       0.0770277 -0.13562952 -0.02482348 -0.03093284
0001a0 db ca e2 bd ee dd a8 bd f5 77 cd 3b ba 28 47 be
       -0.11073848 -0.08245455 0.0062704035 -0.1944913
0001b0 f1 87 3f 3e b8 40 1c 3d 11 c2 ea 3d 5e 24 c0 bd
       0.18704201 0.038147658 0.114627965 -0.093819365
0001c0 77 0b 0b bd 4f 23 04 bd 22 30 76 bc 17 db ba 3d
       -0.03394648 -0.032260235 -0.015026124 0.09123819
0001d0 5f 79 9d ba 4a 8e 50 3e 95 57 a0 be f2 da 02 bd
       -0.0012014321 0.20366779 -0.3131682 -0.031947084
0001e0 e7 27 a5 bd c5 c5 dc 3c 68 71 51 3e 95 4d 86 3d
       -0.080642514 0.026949773 0.20453417 0.06557766
0001f0 92 01 f9 3d 49 81 93 3c 5b 69 ce 3d 66 ff fe 3c
       0.12158503 0.018005984 0.10078689 0.031127643
000200 8b 25 20 bd f9 df 67 3d 54 33 09 be d9 8b 7d 3d
       -0.039098304 0.05661008 -0.13398486 0.061900947
000210 19 02 02 3d 0e 15 05 be fd fe 8c bc 19 e2 81 3d
       0.03174028 -0.12996313 -0.017211432 0.06341953
000220 e6 6c 55 3d b4 a7 1c bd ab 4d 25 3e 95 cf 6c 3e
       0.052105807 -0.03824587 0.16142909 0.23126061
000230 bb 84 af bd bd 1c 22 be bd f9 8a bc 04 79 69 3e
       -0.08570238 -0.15831275 -0.016964788 0.2280007
000240 30 22 c3 3d 49 35 cb bc a7 33 03 bd 7e 51 45 be
       0.09528005 -0.024805682 -0.03203168 -0.19269368
000250 0a 43 8a 3d 92 24 97 3d c0 0c 97 bc 21 d4 4d bc
       0.06751068 0.07380022 -0.018438697 -0.0125627825
000260 d5 ef 20 bc e7 9e 64 bd 55 94 a3 bd 08 3d 32 3e
       -0.009822805 -0.055815604 -0.079872765 0.17406094
000270 16 49 47 bd 99 ad ab bc 32 a8 09 be d7 ef 1a 3d
       -0.048653685 -0.020956801 -0.13443068 0.037826385
000280 33 b9 34 bc 99 81 92 3d c9 f1 2d be d8 5a 18 3e
       -0.011030483 0.07153625 -0.16986765 0.14878404
000290 9d ab 6e 3e ec eb 40 3e 85 d0 30 3d 5c 7e 37 3e
       0.23307653 0.18839997 0.04316761 0.17919296
0002a0 0b cf c9 3d b0 34 44 3e 66 59 30 3d 5b c1 59 be
       0.098539434 0.19160724 0.043054007 -0.21265166
0002b0 d5 ae b9 ba 8b 20 d9 3d 82 a8 03 be 76 fb ae bd
       -0.0014166484 0.1060191 -0.1285725 -0.08544056
0002c0 29 7a e3 bd 58 d1 4d be a7 e1 43 3e 85 f7 82 3d
       -0.111072846 -0.2009939 0.19129048 0.06394867
0002d0 bd e0 8c 3c 44 60 51 bc a3 d5 61 3d d8 ed 96 3b
       0.017197007 -0.012779299 0.05513538 0.00460599
0002e0 36 9c f3 bc 90 58 d4 bc 95 f6 e8 bd fd 47 f3 3d
       -0.029737573 -0.025921136 -0.11375157 0.11878965
0002f0 71 80 a1 3d 91 31 d9 bb 21 c5 42 be 75 c3 b7 bd
       0.078858264 -0.006628223 -0.19020511 -0.08972827
000300 33 c9 7d 3e 98 8f 24 3e a7 ed c5 be 4a e7 58 3d
       0.24783783 0.16070402 -0.38657877 0.05295495
000310 80 0b ae bb 90 e0 d1 bd d7 58 2d 3e f4 3b ff 3d
       -0.0053114295 -0.1024791 0.16928421 0.12462607
000320 bb d9 36 bd 7b 06 d1 bc ab ed 0a 3e de ae 5c bd
       -0.044641238 -0.025515785 0.13567226 -0.053877704
000330 75 99 f2 bd a6 67 82 3c 48 95 eb bb 8a f4 fa 3c
       -0.11845676 0.015918564 -0.0071894266 0.030634183
000340 bf b2 64 3d cf 16 45 3e 4d 13 77 3d b2 23 d0 3d
       0.055834528 0.19246982 0.06032114 0.10163058
000350 1a cd 98 3d 46 ba 08 be 11 98 63 bc 7e 71 83 3d
       0.07460995 -0.13352308 -0.013891236 0.06418131
000360 76 21 a9 3d 0e c5 e0 bd 41 46 6e bd 4b 17 76 bd
       0.08258335 -0.10975085 -0.058172468 -0.060080808
000370 0f 04 30 bc d4 6c 92 bc e9 71 ed bb da 32 ae bd
       -0.010743155 -0.017874159 -0.007246245 -0.08505793
000380 ce 08 38 3d 5c 02 e4 bc 0a 20 eb bc 86 59 a4 3d
       0.04493027 -0.027833156 -0.0287018 0.08024888
000390 08 cc fb bd 86 39 27 bc 63 22 3c 3d 59 cc b9 3d
       -0.12294775 -0.010206586 0.04593123 0.09072179
0003a0 2c d3 a7 3a e2 d5 f2 bd c8 3f 4b bd 2f c7 fd bd
       0.0012804023 -0.11857201 -0.049621373 -0.12391507
0003b0 0b 47 19 bb 5f 16 54 3e 5c 46 6f 3d 3e 42 ed 3d
       -0.0023388292 0.20711659 0.05841671 0.115849
0003c0 6f ad cb 3d f7 8a 9f bb d5 b1 8a be f8 99 09 be
       0.09945189 -0.004868861 -0.270888 -0.1343764
0003d0 88 6a 7d 3e 4e 64 b3 3d 49 29 2e bd 85 06 bb 3d
       0.2474767 0.08759366 -0.04251984 0.09132103
0003e0 99 de 5b 3e db bf 83 3e c3 e7 9b bd 6a 16 f2 bd
       0.21471633 0.25732312 -0.076125644 -0.118206814
0003f0 77 7c 8f 3e e8 cd 28 be de dc 5c be 78 3c df 3d
       0.28024647 -0.16484797 -0.21568629 0.109002054

hist_encoder.weight_hh_l0 f4 [192, 64]
000000 37 64 59 3d 05 b5 60 3b 46 51 1f be d6 4a 09 3d
       0.053074088 0.0034287584 -0.15558347 0.033518635
000010 47 42 7d 3d 76 9a 59 3d 5f d5 15 3a 80 ef 80 bd
       0.061830785 0.05312582 0.00057156937 -0.06295681
000020 9b 3c a5 bd b4 90 b8 bb f9 d8 3f bd 9a a6 fd bd
       -0.080682 -0.0056324843 -0.04683778 -0.12385292
000030 84 db 02 bd fc 6a 0a 3e 4e 14 a6 3d 21 88 3a 3c
       -0.031947628 0.13517374 0.081093416 0.011384995
000040 76 2e fe bc b3 0b 15 be e8 92 2b 3c 1f 08 2f bd
       -0.031028014 -0.14555244 0.010472037 -0.042732354
000050 09 ac da ba 8e 05 aa 3d e5 91 8e 3d da 22 82 bc
       -0.001668335 0.08301841 0.06961421 -0.01588576
000060 17 d2 e9 bd 86 67 b0 bd a8 58 cc 3d a7 86 a7 3d
       -0.114170246 -0.086134955 0.09977847 0.0817998
000070 4b bc a6 bd 1c a0 ee 3d 61 ce 07 be 37 7b ab bc
       -0.08141383 0.11651632 -0.13262321 -0.020932777
000080 02 6a a0 3d fa 8c bb bd 76 21 7f bd 89 0a d6 3c
       0.078327194 -0.091577485 -0.06228777 0.02612807
000090 cf 0e 9f bd 6b a4 8d 3d c2 66 44 b9 7a 2c 82 bc
       -0.077664964 0.06916126 -0.00018730297 -0.015890349
0000a0 a1 45 c4 bc b7 d1 0c 3d 48 af 39 bc 99 2e 75 bd
       -0.023958983 0.034379687 -0.011333294 -0.059858892
0000b0 24 b5 a4 3d 47 12 6b bd b9 25 29 3d b9 3f 93 3b
       0.08042362 -0.057390478 0.04129574 0.0044936803
0000c0 c8 70 f5 3c 6d 47 a7 bc 90 a8 00 be 8a 9e 74 bd
       0.029961005 -0.0204198 -0.12564301 -0.059721507
0000d0 b6 29 21 be e6 b8 f6 3c 75 b3 ed bd ae 7f 25 be
       -0.15738568 0.030117463 -0.11606494 -0.16161987
0000e0 eb a5 6e 3d 51 e7 14 3e 8f a4 0b bd 1f c0 a8 3d
       0.0582637 0.14541365 -0.034092482 0.08239769
0000f0 82 31 b1 3d a6 b4 11 3e b1 fd 6e bb 98 58 d9 3d
       0.08652021 0.14229068 -0.003646713 0.10612601
000100 fb 46 84 bd 18 c2 e7 bd 69 84 02 bd 9e e7 c6 bb
       -0.06458851 -0.11316317 -0.031864557 -0.0060700914
000110 30 35 ad 3d ab 78 29 bd d2 75 d1 bc c1 29 21 3e
       0.0845741 -0.041374844 -0.025568876 0.15738584
000120 b5 0e 87 3d 5f 5a 35 3d 74 51 00 3e c6 da 5c bd
       0.06594602 0.044275638 0.12531072 -0.053919576
000130 8f 3c 34 3d 58 6e cc 3d 7d 60 00 be 97 e1 85 bc
       0.044003066 0.09981984 -0.12536807 -0.016342921
000140 b1 ef 3e 3e 7c a2 1c be 92 6a bf 3d 68 aa 16 be
       0.18646123 -0.15296358 0.093464985 -0.14713442
000150 c8 e9 15 be 82 5f d5 bd 06 6d 13 bd 61 04 8d 3c
       -0.14639962 -0.10418607 -0.035992645 0.017214002
000160 37 86 ff 3c cc d9 30 3e 3f 09 16 bd 12 2d 5c 3d
       0.031191928 0.17270583 -0.03662991 0.05375392
000170 3c b9 ca 3d b3 5b e9 3c 2c 8c 76 3c ba 39 ea 3d
       0.09898612 0.028486108 0.015048068 0.11436792
000180 ec 0c 16 bd 79 e7 98 bd 97 44 06 3d e4 85 95 bd
       -0.036633417 -0.07466025 0.032780256 -0.07300928
000190 c9 76 f7 bc 9f 1a 3d be 4b 7c ba ba a7 43 86 3d
       -0.030208008 -0.18467186 -0.0014227716 0.065558724
0001a0 c1 39 5c 3d e8 4f 36 be 69 fd 62 bd 7e 82 e6 3c
       0.053766016 -0.1780392 -0.055417452 0.028138395
0001b0 c3 76 bc bc 7f 41 b5 bd 9d 38 d6 3d 15 76 16 bd
       -0.023005849 -0.08850383 0.10460017 -0.036733706
0001c0 1c 73 80 3d e8 45 d2 3d fc a4 bb bd fd 93 f2 bc
       0.06271955 0.1026724 -0.09162328 -0.029611582
0001d0 ea f2 ce bd 03 21 03 3c bd b7 6d 3d 6e 33 3e 3d
       -0.10104926 0.008003476 0.058036555 0.046435766
0001e0 ed 41 80 bd bb e3 a6 3d 19 60 b9 bd 52 69 e2 bd
       -0.06262574 0.08148905 -0.09051532 -0.110552445
0001f0 ae 68 7a bd 7e df ca 39 cc 48 90 bd 04 47 21 3e
       -0.061134987 0.00038694957 -0.07045135 0.15749747
000200 76 aa 6e be fd 22 cd 3d 33 13 b9 bd b3 f8 b0 bd
       -0.23307213 0.10016439 -0.09036865 -0.086411856
000210 37 57 cd 3d 3a 06 f0 3d 73 04 0c 3e 5e 0b fd bd
       0.100264005 0.117199376 0.13673572 -0.12355684
000220 6d 03 52 3e ab 86 05 be 7b 3c 65 bd 49 dc 88 bc
       0.2050912 -0.13039653 -0.05596588 -0.016706603
000230 6a 31 a6 bd 95 c9 2b bd 11 ab c3 bd 8d 6e f3 bc
       -0.08114894 -0.04194029 -0.09554113 -0.0297158
000240 6e 5d c3 bc f7 25 32 be c0 d0 15 bd a8 4d fd 3d
       -0.023848262 -0.17397295 -0.036576033 0.123683274
000250 71 7b 0f be 3f 51 81 3d ae 8b 1c be 78 f8 68 3d
       -0.14011933 0.063143246 -0.15287659 0.056877583
000260 c0 32 a0 bd 96 3f 11 3c 8b 00 ae ba b5 b9 1d bd
       -0.0782218 0.008865258 -0.0013275308 -0.038507182
000270 89 81 be 3d a0 c6 d7 bd dc 85 ab 3d 57 1f 54 3b
       0.093020506 -0.105359316 0.08375141 0.0032367313
000280 16 3f ec 3d ee a1 10 3e 4f 63 aa 3d b1 cb 79 bd
       0.1153547 0.14124271 0.08319723 -0.06098527
000290 81 8e 22 bd c9 23 72 bb 6c ac 41 3c 0c 95 9f bd
       -0.039686684 -0.00369476 0.011820894 -0.077921
0002a0 34 00 23 be 6c d5 c8 3d e2 02 24 3d 35 89 39 3e
       -0.15918046 0.09806332 0.04004181 0.18118747
0002b0 f4 9a 1b 3d a3 f9 3d be d9 d4 42 3d 27 b9 cb bd
       0.03798957 -0.1855226 0.04756627 -0.099474244
0002c0 f0 35 b7 bd 04 7e 88 be f0 1e 8c 3e 2a 06 c6 bd
       -0.08945835 -0.26658642 0.27367353 -0.096691445
0002d0 ef f3 4d bd c3 a4 fa 3d 53 7f 9c 3c ef 0f 07 bd
       -0.05028146 0.12238457 0.019103682 -0.03297418
0002e0 2f 54 85 3c 35 ef b3 bd 45 26 97 3c f2 5e cc 3b
       0.016275493 -0.087858595 0.018450866 0.0062369043
0002f0 c1 ae 6b 3d cb d2 bd bd ac ef e4 bd 49 15 4c bc
       0.057539705 -0.09268721 -0.11178526 -0.012456247
000300 43 93 35 3e cd 2c eb bc 7e 94 86 3c 06 b6 07 3e
       0.17731957 -0.028707886 0.016428228 0.1325303
000310 dc ac ca bd 7f f7 2c bd dc c1 d1 3d 5a 66 22 be
       -0.098962516 -0.04222822 0.10242054 -0.15859357
000320 b3 0f 44 3d 7a fc d3 3d 51 8e 9b bd 6a f9 65 3d
       0.047866534 0.103508905 -0.07595504 0.056146063
000330 dc 7f af 3d 72 53 28 bd 16 24 9f 3d 52 c5 94 bc
       0.08569309 -0.041095205 0.07770555 -0.018160496
000340 a5 d4 bb 3c 92 b2 70 3d 9e e4 39 bd 72 55 c0 bd
       0.022928545 0.058764048 -0.045384042 -0.093912974
000350 f8 95 a4 3c 6c 68 f6 3d 3d d8 e9 bd 4b 79 da 3d
       0.020091042 0.12031636 -0.11418197 0.10667666
000360 f8 80 c8 3c 3b 65 ab 3d f9 f7 dd bd b5 55 ab 3d
       0.02447556 0.083689176 -0.10838313 0.08365957
000370 a4 62 92 bd 0e 79 0d bd 47 7d 30 bd b0 5d 0c 3c
       -0.071477205 -0.034539275 -0.043088224 0.008567259
000380 b8 11 45 bd 6c 2b d9 3d b7 5e 99 bd c3 0c 23 3d
       -0.0481126 0.10603985 -0.074887685 0.039807092
000390 d5 ea f1 bb 3d e3 e7 bd 80 e2 0c be 31 66 ad 3d
       -0.0073827305 -0.11322639 -0.13758278 0.08466757
0003a0 f5 11 0d 3e 99 9a b3 bd 4d 17 06 3e e1 a4 ef 3d
       0.13776381 -0.087697215 0.13094826 0.1170137
0003b0 55 6b 33 bd 2a fa 72 3d 9b 7e 64 bd bf 12 14 bd
       -0.04380353 0.059320606 -0.055784803 -0.03615069
0003c0 a0 12 fe 3c 7d 33 87 3d b3 8c 4c bd ce 9f fe 3d
       0.03101474 0.066016175 -0.04993887 0.12432824
0003d0 28 74 b0 3d 63 fb a9 3d a1 4d ba 3c 98 76 ce 3c
       0.08615905 0.08299901 0.022742094 0.025203034
0003e0 c5 a8 0c 3d 8a 12 2a be b3 40 80 bd 5c 36 6a bd
       0.03434064 -0.16608635 -0.062623404 -0.057180747
0003f0 66 56 38 be f3 da 72 bd b1 13 09 be ad 24 b5 bd
       -0.18001708 -0.059290837 -0.13386418 -0.08844886

hist_encoder.bias_ih_l0 f4 [192]
000000 2f b2 4d 3d 21 be 96 3c d4 54 53 3d ee 29 95 3d
       0.050218757 0.018401207 0.05159457 0.07283388
000010 26 bb 57 3e 34 c1 1a bd 2e f8 dd bd 7f ec b7 3d
       0.21067485 -0.03778191 -0.10838352 0.08980655
000020 9e 74 a6 bd b1 17 c8 bd 38 a1 c3 bc 46 e2 74 3d
       -0.08127712 -0.09770144 -0.023880586 0.059786104
000030 d9 3c 8f bd f5 3a 24 3d 14 36 9d bd 2b 92 f7 3b
       -0.06994028 0.04009529 -0.0767633 0.0075552664
000040 18 bd 51 bd 79 b6 83 bd b5 50 41 3b fd 5e 1b bd
       -0.051205724 -0.06431288 0.0029497568 -0.037932385
000050 f5 cb 1c 3c 2e a2 b5 bc d7 69 d9 3d 32 34 d7 bd
       0.0095701115 -0.02217206 0.106158905 -0.10508002
000060 1d 73 97 bd 75 b8 8c 3c d4 45 ab bd 8b 29 38 3e
       -0.07395003 0.0171778 -0.08362928 0.17984597
000070 2a 16 a2 3b a1 40 ec bc 62 33 c4 3d ee 75 ec 3d
       0.00494649 -0.028839411 0.09580113 0.11545931
000080 28 98 31 bd 55 cb 20 bd 7f 9c cd bd f6 02 89 bd
       -0.043357998 -0.039256413 -0.10039615 -0.06690018
000090 52 70 f1 3d 3c 50 8d bd 47 06 6c 3d e4 5b 14 bd
       0.117890015 -0.06900069 0.057623174 -0.036220446
0000a0 85 a6 5f bd 6b 3f d6 bd 4e 4e 04 bd 65 93 c4 bd
       -0.054602165 -0.10461315 -0.03230124 -0.09598426
0000b0 06 e8 b1 3d 76 01 aa 3d b9 e4 ab bd 54 47 e3 bd
       0.08686833 0.0830106 -0.08393235 -0.11097589
0000c0 29 3b 99 3a 36 05 6f 3d bc c3 eb 3b f0 63 05 be
       0.0011690605 0.05835458 0.007194964 -0.13026404
0000d0 57 f0 26 3c 4f 5a 0a 3d 9d 56 b2 3c 5a da 16 bd
       0.010189137 0.03377753 0.021769816 -0.03682933
0000e0 3d 42 8c 3d 1b 50 b6 3d 4d 2c 20 bd 17 d7 cd bd
       0.068485714 0.08901998 -0.03910475 -0.10050791
0000f0 96 f1 86 bd 13 8e 21 3d ce 8b 46 3d fe 9f e5 3d
       -0.065890476 0.039442133 0.048473172 0.11212157
000100 f1 b3 83 be 12 12 d5 bc d5 d0 90 bd 79 50 1a be
       -0.25723222 -0.026009593 -0.070710815 -0.1506976
000110 a2 23 e9 bd 3f 8e 69 be 73 20 16 be 12 f7 02 3d
       -0.113837495 -0.22808169 -0.14660816 0.031973906
000120 51 54 50 be 67 ea b2 bc b6 88 52 bd b7 54 c2 bc
       -0.20344664 -0.021840287 -0.05139991 -0.023722036
000130 cf 31 9d 3d 77 13 7c bd 70 5a cf bd ec 2f 8c be
       0.07675516 -0.061542 -0.101246715 -0.2738031
000140 80 32 9b bd 3e 14 00 be ce b8 18 be db dc 01 be
       -0.075779915 -0.12507722 -0.14914247 -0.12681906
000150 14 b1 f2 3c 17 a1 20 bd ae a8 e4 3c a6 20 76 bd
       0.029625453 -0.039216127 0.027912464 -0.06008973
000160 23 b7 04 be d3 b3 b4 bd 49 37 ad bd cb 3b 71 be
       -0.12960486 -0.08823361 -0.084578104 -0.23557965
000170 87 a6 17 bd b1 1f 46 3e 0e f9 49 3d 12 bd 23 be
       -0.037024047 0.19348027 0.049309783 -0.15990093
000180 6b f8 52 3d 94 f9 a0 bd c8 c3 2a 38 00 6d 63 bd
       0.05150644 -0.07860103 4.0713494e-05 -0.055523872
000190 e1 5a cd bd de 3d 64 3d 6b 42 19 be d3 b7 c0 bc
       -0.100270994 0.055723064 -0.14966743 -0.023525154
0001a0 6c 5e a7 bc d2 4d fd bd 2c fd 4d be e6 49 33 be
       -0.020430766 -0.12368359 -0.20116109 -0.17508659
0001b0 2e 63 7c be 61 f6 61 3d 94 b4 c3 3d 21 19 03 be
       -0.24647209 0.055166606 0.09555927 -0.12802555
0001c0 6e fe 89 be b1 33 a7 be e1 1d 25 3d a8 b3 5d 3d
       -0.26951927 -0.32656625 0.040311698 0.05412641
0001d0 b6 04 9d bc 48 f6 a5 bd ce 20 81 bd 87 b6 31 bd
       -0.019167285 -0.08103615 -0.06305085 -0.043386962
0001e0 b0 3a b6 3d 4b 1f 9c 3c 35 2b a7 bd e0 22 82 bd
       0.088979125 0.01905789 -0.08162538 -0.06354308
0001f0 c8 3c 28 be 04 23 02 be 5a 99 fe bc 92 dd 32 be
       -0.16429436 -0.1270867 -0.031078983 -0.17467335
000200 d5 be 0b 3e de 07 f7 3d ed ac ca bd bc 6a db 3d
       0.13647015 0.120620474 -0.09896264 0.10713717
000210 a8 09 e2 bd 8c 9b 42 bd 14 b5 ee 3d d7 00 fe bd
       -0.11036998 -0.047511622 0.11655632 -0.12402504
000220 85 4a 8b 3d 79 1b 02 3e 64 05 90 bc 80 e8 de 3d
       0.06801323 0.12705792 -0.017580695 0.108841896
000230 33 3e 4b 3d d8 85 b5 bd 31 ea db bc 5d 8b dc bc
       0.049619865 -0.08863419 -0.02684507 -0.026921922
000240 6f d9 08 3d 4c 29 dc 3d bd cd 39 bd a9 b9 d5 bd
       0.033410486 0.10750064 -0.045362223 -0.104358025
000250 fd 1e 63 3d 55 0e 94 3d b3 16 fe 3d 0a 32 8d 3d
       0.055449475 0.07229296 0.12406673 0.0689431
000260 bc 22 07 3d f8 54 0a 3e fb 1a 82 bd 4a f2 2b bd
       0.03299211 0.13508976 -0.06352802 -0.04197911
000270 12 74 e2 3d 67 dd 5e bd 3f f6 da 3d ce 55 a8 bd
       0.11057295 -0.054410364 0.10691499 -0.08219491
000280 63 fd 86 3d aa 90 cf 3d b8 0d 7c 3d ba 7e b2 bd
       0.065912984 0.10135014 0.06153652 -0.087155774
000290 2a db 10 bd a7 90 f5 bc d2 be 96 bd 39 1b 3e 3d
       -0.03536526 -0.029976202 -0.07360615 0.04641268
0002a0 dd 78 06 3e 40 27 1c bd 47 cd 6d ba f6 49 62 bd
       0.13132043 -0.03812337 -0.0009071421 -0.055246316
0002b0 bb 9c 83 3c d8 4a a0 bc 5c 51 9c 3c 3e 66 d7 3d
       0.016065946 -0.019566938 0.019081764 0.10517548
0002c0 19 17 a2 3d 43 18 37 bd 49 27 d2 3d b6 29 73 bd
       0.07914562 -0.044700872 0.10261399 -0.05936595
0002d0 27 56 bf bd f9 80 20 bd 22 88 e6 3d 10 d9 6b 3d
       -0.09342604 -0.039185498 0.11256434 0.057580054
0002e0 f2 3b 94 3c 4d 15 80 3b c3 7a 96 3d c6 c5 dd 3b
       0.01809499 0.0039087893 0.07347634 0.006767961
0002f0 52 aa db 3c 48 16 e6 bd 84 eb 86 bc c5 f9 b9 3b
       0.026814613 -0.112347186 -0.016469724 0.005675527

hist_encoder.bias_hh_l0 f4 [192]
000000 0f 45 bc bd ec 83 af bd 64 b8 06 bc 1a 5a 05 3e
       -0.091928594 -0.08570084 -0.008222673 0.13022652
000010 7d 88 fa 3d 0a 6c 76 3d c2 16 16 bd 65 08 e1 bd
       0.12233064 0.060161628 -0.036642797 -0.10987929
000020 93 0f 94 bd c5 ac 15 bd e1 27 d8 bd 07 fa e5 bd
       -0.07229533 -0.03654172 -0.10554481 -0.112293296
000030 12 1a da 3d 84 dd 91 3d 13 48 b8 3d 17 6d d2 3c
       0.10649504 0.07122329 0.08998122 0.025686784
000040 01 a6 91 3c ef 3a ae bd e0 20 94 3d 6f e0 84 3d
       0.017779352 -0.085073344 0.07232833 0.0648812
000050 1f 7e 3d 3e 67 d7 df 3c c8 e0 2f 3c 14 00 1c be
       0.18505143 0.027324392 0.010734744 -0.15234405
000060 0d 79 55 bd bf 3e b4 3d b0 2a a9 bd 1a 87 5c 3e
       -0.052117396 0.0880103 -0.08260095 0.21535912
000070 1d 20 a5 3d cd 60 0b 3e 9c f0 a9 bd 58 e5 b9 3d
       0.08062766 0.13611145 -0.08297846 0.09076947
000080 2e b0 37 3d a6 dd c6 3d d8 80 e0 bd 5f a3 b4 bd
       0.044845752 0.09710245 -0.10962075 -0.08820223
000090 dc 62 94 b9 16 f2 08 be ce 71 a2 bd d6 5f 82 bc
       -0.00028302416 -0.13373598 -0.07931863 -0.015914839
0000a0 da 09 a7 bc 71 bd 1b be 56 15 22 3d 06 39 87 3d
       -0.02039044 -0.15208985 0.03957113 0.06602673
0000b0 dd ee 8a 3d 83 0c 96 bc e1 8d a7 3d f0 82 71 bd
       0.06783841 -0.018316513 0.08181358 -0.058962762
0000c0 9c 45 99 bd 12 38 03 3d d7 e8 22 3c 3b 5c 81 bb
       -0.0748398 0.032035895 0.009943209 -0.0039477623
0000d0 b0 53 30 bd 1f ff 33 bd 61 a6 8b bc 4f 25 84 3d
       -0.04304856 -0.043944474 -0.01704711 0.064524285
0000e0 f7 52 e3 3d 5e 47 2c bd fe 8f a8 3d 85 e1 93 bd
       0.11099809 -0.04206025 0.08230589 -0.07220749
0000f0 39 a8 f9 bc 08 fc c2 bd 06 25 3f bd 6b a6 1a bd
       -0.030475723 -0.095207274 -0.046666168 -0.037756365
000100 f9 e3 c2 bd d3 e5 17 be 6d b5 75 bd c9 5b 6e be
       -0.095161386 -0.14833765 -0.059987474 -0.23277201
000110 74 83 2c 3d 60 6b 56 be f8 6c 0a be bf 87 e1 bd
       0.04211755 -0.20939398 -0.13518131 -0.1101222
000120 c0 76 77 be 8b 57 bb bd cf 20 82 bd 19 5b e7 3b
       -0.24166393 -0.09147557 -0.06353914 0.0070604202
000130 c0 7e f7 3a e4 d9 df bd 12 20 ee bd 62 e2 8a be
       0.0018882379 -0.10930231 -0.11627211 -0.2712584
000140 30 da 8f bd 3c 2a 59 be e6 be 7e be ab 79 f3 bd
       -0.07024038 -0.21207517 -0.2487751 -0.11888441
000150 9c 24 ca bb 26 ea ae bd 83 af 97 3d 48 9d 1b 3d
       -0.006168915 -0.08540754 0.07406523 0.037991792
000160 6a 4d a7 3a 6f e7 57 be 0f 16 ee bd 6b 64 8e bd
       0.001276416 -0.21084379 -0.11625301 -0.06952747
000170 24 77 31 bd 68 4d 37 3e 08 16 90 3d 00 0e ab bd
       -0.043326512 0.17900622 0.07035452 -0.0835228
000180 65 80 a7 bc 3a be 50 bd 0c 21 14 bd 7e 86 42 3d
       -0.020446965 -0.050962664 -0.03616433 0.047491543
000190 1c c6 09 3c dc 98 c8 3b e5 a3 67 be 5d 74 34 3d
       0.008409049 0.006121738 -0.22621115 0.044056285
0001a0 48 3e 08 bc 95 7a 23 be a5 07 60 be a4 9d 51 be
       -0.00831563 -0.1596473 -0.21877916 -0.20470291
0001b0 23 68 58 be 69 41 e3 3d 29 73 a9 bd 35 65 cc bd
       -0.21133475 0.1109646 -0.08273918 -0.09980241
0001c0 03 57 ad be 6d 9f a8 be 24 fc ed 3d d5 55 25 3d
       -0.33855447 -0.32934132 0.11620358 0.04036506
0001d0 a0 ad 1e be 37 51 17 be 02 88 b4 bd 99 9a 9a bd
       -0.1549592 -0.14777075 -0.08815004 -0.075490184
0001e0 28 5d 94 bd 86 63 c2 bd 0f 91 21 be 77 f3 d1 bc
       -0.07244331 -0.09491639 -0.15777992 -0.025628788
0001f0 ff fc 84 be 15 be 74 be 5a f7 61 bd 4f 04 fb bc
       -0.2597427 -0.23900636 -0.055167533 -0.030641703
000200 c2 ad 6b bd de 8a 06 3d ba 5a d2 3a db 48 23 3e
       -0.057538755 0.032847278 0.0016048767 0.15945761
000210 3a f3 ae bd 0d 0a 7d 3d 3c 5e fc bc 68 07 32 3d
       -0.085424855 0.061777163 -0.030806653 0.043464094
000220 39 2b 39 3c 12 e7 7c 3d 8e 1f fc bd ba 06 2c 3d
       0.011301809 0.061743803 -0.12310706 0.041998602
000230 e7 3d 8d 3d 65 69 89 3d d0 01 34 bd 98 c6 87 ba
       0.068965726 0.067095555 -0.04394704 -0.0010358868
000240 d8 67 56 bd 85 19 d1 bd ef fa 54 3c ba 79 9c bd
       -0.052345127 -0.102099456 0.01299928 -0.07640405
000250 0f 02 d0 3d 3e 74 e1 ba a6 b8 0c bc f6 08 bb bd
       0.10156643 -0.001720078 -0.0085889455 -0.091325685
000260 83 85 06 be 71 e1 8e 3d e2 f7 de 3d d3 36 5b 3d
       -0.13136868 0.06976593 0.10887124 0.05351908
000270 ae 89 a7 bd b2 51 dc bc f7 b0 2f 3d 10 67 f8 3d
       -0.08180557 -0.026894424 0.042893376 0.121290326
000280 b7 7a bd 3d c7 d6 0d 3e a8 ed 02 bd 42 5b 2d bb
       0.092519216 0.13851462 -0.031964928 -0.00264521
000290 f0 ea 61 bd 56 d7 40 bd 99 ca a0 3c 03 45 92 bd
       -0.055155694 -0.04708036 0.019627856 -0.07142069
0002a0 fd 83 0e 3e 43 6a 61 3c 62 dc 01 bc 68 38 e4 3d
       0.13917537 0.013758245 -0.0079260785 0.11143571
0002b0 bb 81 30 3d c8 e9 95 3d 00 1b 90 bd 61 cd 98 3d
       0.04309247 0.07319981 -0.070364 0.07461048
0002c0 09 9e bc 3c ad 6d 9d bc 4f 78 f9 bd c0 71 a9 3d
       0.023024576 -0.019217337 -0.1218115 0.08273649
0002d0 e8 26 0a 3c 3e da ae bd 72 df d2 39 75 04 0d 3e
       0.008432128 -0.0853772 0.000402208 0.13771231
0002e0 76 10 32 3c 6c 55 fe bd 3e a1 76 bd 38 8a 2c 3d
       0.010868182 -0.12418637 -0.060212366 0.042124003
0002f0 46 2d ea bd d0 8a 3b bc 92 48 57 3c f2 b4 81 bc
       -0.114344165 -0.01144667 0.013139861 -0.015833352

hist_encoder.weight_ih_l1 f4 [192, 64]
000000 d1 d8 e0 3d a5 70 e8 bc ce 6c ff bd fb f9 82 bd
       0.109788544 -0.028374026 -0.12471925 -0.06395336
000010 5f 08 79 bc 3c 81 da 3d a6 88 9c be 44 78 27 be
       -0.01519975 0.10669181 -0.30573004 -0.16354471
000020 38 49 03 3e 62 b0 15 be 72 77 8b 3d f2 4b c2 bd
       0.128209 -0.14618066 0.06809892 -0.09487142
000030 6b 9f f0 bc 6d d6 18 3c 95 98 a7 3d 77 6f 83 3d
       -0.029372891 0.009328467 0.081833996 0.064177446
000040 6c 28 85 bb 9e 13 4c 3d 25 06 b5 bd ed 64 f2 3d
       -0.0040636566 0.049823396 -0.088390626 0.11835656
000050 b1 6d 16 3d d4 fb d5 bc 9f af 02 3d b1 c8 f8 3d
       0.036725704 -0.026121058 0.031905767 0.12147654
000060 d0 b6 ca bd 4d 1d 10 be 80 c3 da be 29 63 d1 bd
       -0.0989815 -0.14073677 -0.4272728 -0.102239914
000070 2e c7 21 bd 33 1c cd bd cd 95 81 3c 43 88 ee bd
       -0.039496593 -0.10015144 0.0158185 -0.116470836
000080 93 e5 84 3d 77 b6 11 bc ec 36 7d bd 64 d7 e1 bd
       0.064891 -0.008893601 -0.061819956 -0.110274106
000090 fa 71 a0 bd c8 a2 31 3e df da 84 be dc 09 bc bd
       -0.07834239 0.17347252 -0.25948235 -0.09181568
0000a0 40 c6 92 bd 04 99 08 3e 28 e8 f2 3d 92 aa 92 bd
       -0.071667194 0.13339621 0.118606865 -0.0716144
0000b0 06 94 3a 3e c6 d6 1d be 7c 65 88 3e 4b bc cf 3d
       0.18220529 -0.15413961 0.26639926 0.10143336
0000c0 3a 8b 44 bd 5b 27 f7 3d b7 8c ce 3d 7d 53 04 3e
       -0.04798434 0.12068053 0.10085433 0.12922473
0000d0 81 75 4c 3e f1 05 2a 3e 6c 0c b9 bd 7f 70 8b bd
       0.19966699 0.16603829 -0.090355724 -0.06808566
0000e0 aa 23 5b 3d 9e bd 28 be ec 7f a8 3c 73 73 3a bd
       0.05350081 -0.16478583 0.02056881 -0.045520257
0000f0 af 0f 53 3d 87 35 ca bd c0 d8 c2 bc 02 59 66 bd
       0.05152863 -0.09873491 -0.023784995 -0.05623723
000100 02 22 64 bd a0 5a 5b bd 00 d3 80 3d bd 9b 7a 3d
       -0.055696495 -0.053553224 0.06290245 0.06118368
000110 10 a5 45 bd 8e 18 f3 bd 3a 2a 2f be 7d fc 4b bc
       -0.04825312 -0.11869918 -0.17105952 -0.012450335
000120 7b 3f 9c 3d 06 a1 76 b8 1d 67 0a 3e 14 a0 a7 bd
       0.076292954 -5.8800935e-05 0.13515897 -0.08184829
000130 93 0d c5 3c 99 9b 95 bd 32 91 a9 3d a8 58 fa bd
       0.024054324 -0.073050685 0.08279647 -0.12223941
000140 a5 8a c6 bc 38 a2 7f bd d3 81 b9 bc 23 bd 9f 3d
       -0.024236033 -0.062410563 -0.022644913 0.07799747
000150 27 f3 d1 bd a2 46 b4 bb a0 80 ba 3c 6b b7 00 3e
       -0.10251456 -0.005501584 0.022766411 0.12569968
000160 5a 1b e4 3d ca 36 52 bd 66 c3 51 3d 31 91 c8 bd
       0.111380294 -0.051321782 0.051211737 -0.09793318
000170 78 fa fc bd 16 c0 e2 bd 56 fd bf bd de b3 eb bd
       -0.123524606 -0.11071794 -0.09374492 -0.11508916
000180 f4 1d 0d be 39 11 00 3e 9d d5 62 bd 00 c4 b8 3d
       -0.13780957 0.1250657 -0.0553795 0.09021759
000190 a6 ac 51 bd 6b 32 7c 3d 48 6a 11 be 5c ee 06 be
       -0.05119004 0.06157152 -0.142007 -0.13176864
0001a0 6a 16 9b 3c a9 9a 37 bd 39 a1 c2 bd 07 aa 26 3d
       0.018931586 -0.04482523 -0.09503407 0.040689494
0001b0 95 5d 0e 3d 60 2b 03 be 61 14 8e bd 2c 86 dd 3d
       0.034757216 -0.12809515 -0.06937481 0.10816607
0001c0 d3 c6 8a 3d 48 f6 cc 3d c5 0a 96 bd 98 63 f2 3d
       0.06776204 0.10007912 -0.07326273 0.11835402
0001d0 ba d2 9d 3d d6 da ec 3d b5 9b 64 bd 75 9a cf bd
       0.077062085 0.11565177 -0.055812556 -0.10136882
0001e0 64 0c bf 3d 50 e3 4b bd 11 01 b9 3d 2b 2c db bd
       0.09328535 -0.04977733 0.090334065 -0.10701784
0001f0 61 a5 d1 3d ba 41 b2 bc 1e 6b 1c bd 4a 8a 8e 3d
       0.10236622 -0.021759856 -0.038188092 0.0695997
000200 66 d4 0f bc 86 21 1f bd fc 84 9c bd bf 2d 2a 3c
       -0.008778667 -0.03885033 -0.07642552 0.010386883
000210 1e a9 09 be f5 c2 93 3d 36 f5 1b 3e be 0f 95 3d
       -0.1344342 0.072149195 0.1523026 0.07278393
000220 10 fe 15 be a8 64 b5 3d 88 0e d4 bd a0 53 f5 bc
       -0.14647698 0.08857089 -0.10354334 -0.029947102
000230 16 a2 e7 3d 8b 05 45 3c 5b 4c dc bd a3 cf 18 3e
       0.11310212 0.012025247 -0.10756751 0.14922957
000240 5e 3b a5 3d 79 22 c7 3b 4a 77 a0 bd 93 1d 52 bd
       0.08067964 0.0060771075 -0.078352526 -0.051297735
000250 ba 49 02 be 43 06 58 3d 8a 31 f2 bd 1c 58 b3 bd
       -0.12723437 0.052740347 -0.11825855 -0.0875704
000260 bb c2 12 3b b0 28 6d bd ce 90 a0 bd fd 54 e0 3b
       0.00223939 -0.05790013 -0.07840119 0.006846069
000270 b2 f0 3b 3d 90 77 8d 3d a6 98 91 bd 82 5c 5e bc
       0.04588384 0.0690757 -0.071091935 -0.01357186
000280 77 66 6a bd 49 fd 3e bd ca ad 15 be 8a 7f bc b9
       -0.057226624 -0.04662827 -0.14617077 -0.00035953178
000290 a7 9b 56 be 06 9b 33 be 18 0f eb ba d5 a2 5d bd
       -0.20957814 -0.17539605 -0.0017933575 -0.054110367
0002a0 20 86 75 3d 20 a3 e2 3c fa 10 38 bc e7 50 78 3c
       0.059942365 0.027665675 -0.011234516 0.015156007
0002b0 5b b7 1f 3e 2e b0 c1 bc 20 2c 9c bc fa 50 c5 bc
       0.15597288 -0.02364358 -0.01906401 -0.024086464
0002c0 7b 7e df 3c fa d2 34 bd 40 1e 9e bd 26 71 bb bd
       0.02728199 -0.044146515 -0.077206135 -0.09152441
0002d0 84 b1 a1 bc 95 9d e1 bc 07 c9 bd bd 07 e4 59 3c
       -0.019737966 -0.027540961 -0.092668585 0.013298995
0002e0 76 7a 5b b9 6d d2 d5 3c 37 52 f4 3b e3 bb 9e bd
       -0.00020931088 0.026101315 0.00745609 -0.0775068
0002f0 09 ba 78 3d 6f 43 a8 3d ce e4 0f bd 14 02 93 3d
       0.060724292 0.08215987 -0.035130315 0.07178131
000300 b9 40 19 3e 64 a9 2d bd d0 95 1b 3a e9 8a 1f 3e
       0.14966096 -0.04239787 0.00059351046 0.15580334
000310 6a 44 bc bd 72 e6 a4 bd 73 6f 00 3e 72 9e cb 3a
       -0.091927364 -0.080517665 0.12542515 0.0015534891
000320 16 ef 8b 3d 5a c2 fe 3d fb 9d 0b be 47 7f eb 3d
       0.068327114 0.12439413 -0.13634484 0.114988856
000330 46 e2 fc 3d c3 99 9d 3d 40 f0 14 bd 5c 42 58 bd
       0.12347846 0.07695343 -0.036361933 -0.05279766
000340 ac c1 4f bd f4 db 78 3d f4 26 d6 3d 42 83 6e 3b
       -0.05072181 0.06075664 0.104566485 0.0036394154
000350 d1 13 70 3c 0f 25 e4 3d 77 32 45 3e a0 2f 44 bd
       0.014653162 0.11139881 0.19257532 -0.04789698
000360 c5 0b 79 bb b0 7f df 3d 15 d8 46 3c 9f 7a 18 ba
       -0.00380014 0.10913026 0.012136479 -0.0005816612
000370 8c bf 55 bd 5a 87 f2 bc 30 ce bf bd 39 4d b0 3d
       -0.052184626 -0.029605556 -0.09365499 0.08608479
000380 09 67 ff bd 13 de 0f 3e 88 9c eb bc 5b 73 f5 bd
       -0.12470824 0.14049558 -0.028761163 -0.11984893
000390 df bc 20 be 55 63 a8 bd 5c 8e f5 3d 1f 78 c2 3d
       -0.15697049 -0.08222071 0.119900435 0.094955675
0003a0 4d c6 88 bd 54 51 12 be b4 f5 56 bd 18 67 97 bd
       -0.06678448 -0.14288837 -0.052480415 -0.073927104
0003b0 dc 20 30 3e ea 27 11 bd 9d e3 04 3b a2 e5 95 bd
       0.17200035 -0.035438456 0.002027727 -0.073191896
0003c0 78 f7 f4 3d 5d 46 0f bd 17 93 95 3d 3a 78 07 3d
       0.119612634 -0.034979213 0.07303446 0.03307364
0003d0 f9 5a 8f 3c 06 27 0c be 34 e9 82 bd a7 01 32 bc
       0.017499434 -0.13686761 -0.06392136 -0.010864652
0003e0 da 46 47 3d 37 61 04 bd 43 ac 74 bd fe 5b 24 bd
       0.048651554 -0.032319274 -0.059734594 -0.040126793
0003f0 87 c6 db bd 30 77 c9 3d 45 5e 2d 3d 7b 0e b4 bd
       -0.107312255 0.09837186 0.04232623 -0.087918244

hist_encoder.weight_hh_l1 f4 [192, 64]
000000 e7 d7 0c 3d 19 86 a4 bc 69 dd 0c bc 1f 5d 2d bd
       0.034385588 -0.020083474 -0.00859771 -0.042325135
000010 7e 5f 40 bd e5 05 ae 3d 60 e6 89 bc 8d 22 c9 3d
       -0.04696607 0.08497218 -0.016833484 0.09821043
000020 3d 7e e6 bd eb c9 aa 3d 4a 40 9c bd d7 a5 24 be
       -0.11254547 0.08339294 -0.0762945 -0.16078888
000030 bc 95 8f bd d4 cc a0 3d 39 47 9d 3d 1c 1f 1c 3b
       -0.070109814 0.07851568 0.076796 0.0023822254
000040 8c 28 18 3e aa 46 d1 3d 60 49 ef bc cf e3 97 bd
       0.14859217 0.10218556 -0.029209793 -0.07416498
000050 4e 32 92 3d 08 c1 d2 3d b6 56 1e bd 9a 10 42 bd
       0.07138501 0.10290724 -0.038656913 -0.047379114
000060 ce 7b be 3a c9 6d 38 3d 33 89 3a bd f8 2f 53 3d
       0.0014532746 0.045026574 -0.045541 0.05155942
000070 1c 73 a0 bd 7e 33 ce bd 18 62 95 bd 2c 9b 96 3d
       -0.07834455 -0.10068415 -0.072941005 0.073538154
000080 c9 d5 09 3d c0 3c 2c 3e 65 9c c0 bc 4c 2a 08 be
       0.033651147 0.1682005 -0.023512075 -0.13297385
000090 cc 68 03 3e f1 70 3d 3e ed 8b eb bd 62 ea 53 3e
       0.12832946 0.18500115 -0.11501298 0.20694879
0000a0 d8 2c d6 3d c0 24 8c bd da cb 90 3d dd 5f ce 3d
       0.10457772 -0.06842947 0.070701316 0.10076878
0000b0 8b 3c 37 3e 46 e7 5e 3d a5 d1 ad bc d9 94 d2 3d
       0.17894189 0.05441978 -0.02121813 0.10282297
0000c0 88 b1 9a bd 87 25 5f 3e 86 6a 38 bd 93 d0 1c 3e
       -0.07553393 0.2179166 -0.045023464 0.1531394
0000d0 fd bc f1 bd 1d a2 ea bd ed 9e 00 3e 53 54 aa bc
       -0.11803625 -0.11456702 0.12560625 -0.020792162
0000e0 5a cf 48 3d 9d e5 d5 3d 7d 06 fa 3a 28 5c 54 3d
       0.04902587 0.10444186 0.001907542 0.0518457
0000f0 ca 62 bd 3c 25 84 c6 3d c9 ae 95 3d ba 82 e5 3c
       0.023118395 0.09693173 0.07308728 0.028016437
000100 de 2f 64 3d 52 44 98 3d 70 44 20 3d d9 0c f1 3d
       0.055709712 0.07434906 0.039127767 0.117700286
000110 5d b7 01 bc b7 23 23 bd 19 19 fa 3d 5d 02 09 3c
       -0.007917252 -0.039828982 0.12211818 0.00836238
000120 0a 17 c4 bc ab 47 be bd 1e 9c 34 bd de 50 aa 3d
       -0.023936767 -0.09291013 -0.044094197 0.083162054
000130 07 9e 92 3d a9 2e 41 3d 2e 19 c7 bc e3 78 77 3d
       0.071590476 0.04716364 -0.024303999 0.06041802
000140 a2 a0 26 3d c3 da 09 3d 08 a2 e5 bc 98 6e bb 3b
       0.040680535 0.033655893 -0.028031364 0.005719971
000150 6b 8a b6 3b 07 02 f7 bd 6b aa 3c bd e7 78 f9 bc
       0.0055707 -0.120609336 -0.04606096 -0.030453159
000160 d0 f3 e7 bd 1d 7d bb bd db c3 76 3c 9c c3 ea 3d
       -0.113258004 -0.09154723 0.015061344 0.11463091
000170 84 b2 23 3d cd 64 1b bd 74 20 f8 bc 64 1b c0 3d
       0.039965168 -0.037937928 -0.030288912 0.09380224
000180 a3 b0 58 3d 84 51 a3 3b 0d 43 af bd eb 77 dc bd
       0.05290283 0.0049840827 -0.08557711 -0.1076506
000190 2f 5f d7 3d f8 09 83 3d ac e2 a2 bd 64 38 de bc
       0.10516202 0.06398386 -0.079533905 -0.027126499
0001a0 db 53 fc 3d 7f 71 bc bc e6 0f 47 be b5 f5 f2 bc
       0.12320682 -0.023003338 -0.19439659 -0.029658178
0001b0 9f 35 45 3b b6 4d 46 bc c7 8f ee bc 70 6c 9f bc
       0.0030091775 -0.012103489 -0.029121293 -0.019460887
0001c0 09 93 81 bd e9 2d 0b 3e fc 12 9d 3d d6 f4 8a 3d
       -0.06326873 0.13591732 0.076696366 0.0678498
0001d0 99 88 b1 3d f1 69 de bc 2f 3b 7f bb 89 42 34 3d
       0.08668632 -0.027150126 -0.0038945188 0.044008765
0001e0 04 24 d5 3c a4 bc cd 3d b9 11 db 3d 26 ef 98 3c
       0.02601815 0.10045746 0.1069674 0.018668722
0001f0 6b 22 80 3d 0c 68 a1 b9 b8 24 99 3d c4 23 3c be
       0.06256565 -0.00030785834 0.07477707 -0.18373019
000200 e6 9f ae 3d 88 a8 30 3d d4 0e ce 3c 28 f0 bf 3d
       0.08526592 0.043129474 0.025153555 0.09371978
000210 eb 18 92 3d 25 1c 62 bd d5 8a 65 bc 80 f0 07 bd
       0.07133659 -0.055202622 -0.014010151 -0.033188343
000220 08 d0 d1 bc 92 62 97 3d 03 0e 18 3d 6b 9c 8d bd
       -0.025611892 0.07391848 0.037122738 -0.069146
000230 f1 54 bf 3d ae bc 52 be 33 5e a2 3d b3 cc 87 3d
       0.09342373 -0.20579788 0.07928123 0.0663084
000240 3b ab 0b 3e 87 9d fa 3d 7f bb 04 bd b1 53 e3 bc
       0.13639538 0.12237077 -0.032405373 -0.027749868
000250 0d ea c1 3c 4f d5 01 bc b0 20 30 3d ed 40 71 bd
       0.023671174 -0.007924392 0.042999923 -0.05889981
000260 1d 3f a1 3d 42 0f 7d 3d 21 4f 7e bc db e7 92 3d
       0.07873366 0.06178213 -0.0155217955 0.07173129
000270 e2 a0 69 3d 14 22 05 be 5a 83 03 3e 92 99 fa bd
       0.057038195 -0.13001281 0.12843075 -0.122363225
000280 db c7 6a 3b d5 a5 3c 3b f1 fb f1 bd 7a e1 6a bd
       0.003582469 0.0028785367 -0.11815632 -0.057343937
000290 10 dc 98 ba 7b 80 1d bd e3 22 b9 3d 4d e2 4b bc
       -0.0011662263 -0.038452607 0.09039857 -0.012444091
0002a0 89 b5 0a 3e c4 3e eb 3d a4 06 89 3d f7 de bf 3d
       0.13545813 0.11486581 0.0669072 0.09368699
0002b0 c4 ba 71 bd 82 e8 1c 3d 65 3f 45 3c 26 84 2f 3e
       -0.059016004 0.038307674 0.01203904 0.17140254
0002c0 51 fd 0b 3d bc ed d1 bc 1a 54 00 3d 58 df ec bb
       0.03417713 -0.025626056 0.031330206 -0.007228773
0002d0 6c 8c 50 3d 13 69 c5 3d 9d a3 10 3d 94 1e 49 bd
       0.050915167 0.09639182 0.035312284 -0.049101427
0002e0 31 28 56 bc f8 33 1b be 3b 50 e9 3c 30 98 0e be
       -0.013071106 -0.15156543 0.02848064 -0.13925242
0002f0 15 56 e5 bd b6 d5 57 3d 16 11 aa 3d 9f 35 01 be
       -0.111980595 0.052694045 0.0830404 -0.12618111
000300 c9 5c ae bc 38 b2 b2 bd 1a 62 8a bd 42 f3 5d 3d
       -0.021284478 -0.08725399 -0.06756993 0.054187067
000310 b1 37 f7 bc 6a 57 d8 3d 2b 66 45 3d b6 98 61 3d
       -0.030177923 0.10563548 0.048193138 0.055077277
000320 f5 88 de bc fc ab 14 3d 25 6b 93 bd 70 1b b2 bd
       -0.027164916 0.03629683 -0.071981706 -0.086966395
000330 79 a1 80 3d cb 40 72 bd 5e 0b c1 3b 89 d9 6c bc
       0.062807985 -0.059143823 0.0058912477 -0.014456161
000340 47 99 19 3d 2b 39 99 3d d4 4d 30 3d c6 19 56 be
       0.037499692 0.07481607 0.043042973 -0.2090827
000350 43 7c dd bd 6f d1 47 3d 04 43 b0 bc 08 01 02 be
       -0.10814717 0.048783716 -0.02151633 -0.12695706
000360 6f 53 52 3d 0b 8b 04 be 52 34 87 bd 82 a7 2e bd
       0.0513491 -0.12943666 -0.06601776 -0.042640217
000370 06 fb 51 bd a3 01 74 bc 85 a7 09 3e 1f 1e 99 bd
       -0.051264785 -0.014892968 0.1344281 -0.07476448
000380 cd 48 7d bc 4f 51 9c 3d 6d 77 17 bd 47 b4 24 be
       -0.015459252 0.07632696 -0.036979128 -0.16084395
000390 ec 46 91 bd fe 6a 9b 3d d8 d7 5b 3c 74 06 c4 3c
       -0.070936054 0.075887665 0.01341816 0.023928858
0003a0 5b cc 97 bc 4c 87 b6 bc 06 62 7e bd 0b 55 b9 bd
       -0.018530061 -0.022281311 -0.0621052 -0.09049424
0003b0 a2 20 84 bd 3f 09 38 bc 67 7c fa 3d 69 15 b1 3d
       -0.06451537 -0.011232673 0.12230759 0.08646662
0003c0 86 b2 69 3d d4 54 35 bd 5d 30 84 3d 4c 4f 0f be
       0.05705502 -0.04427035 0.06454537 -0.13995093
0003d0 2d 90 2a bd 8e a3 88 3d 3b af 9d bd d2 23 f1 bd
       -0.041641403 0.066718206 -0.07699438 -0.1177441
0003e0 da 40 77 bd d8 e4 ec bd d1 9b 8f bd 53 4a be 3c
       -0.06036458 -0.11567086 -0.070121415 0.0232288
0003f0 b9 bb bb bd 8f ae 4b bd 03 d8 bf bd 60 1e 87 3c
       -0.09166665 -0.04972702 -0.09367373 0.016493976

hist_encoder.bias_ih_l1 f4 [192]
000000 06 7d 0a be 29 8b e5 bd 9a f4 42 bd 95 c9 a2 bd
       -0.13524255 -0.11208183 -0.04759655 -0.07948605
000010 4a cc 8d 3c 3f 4f ce bd 6a 50 08 3e df e0 b8 3d
       0.017309327 -0.10073709 0.13311926 0.09027266
000020 25 a9 54 bd 32 5d 20 3d 75 2e 09 bd d2 37 3f 3d
       -0.05191912 0.039151378 -0.03349157 0.046684094
000030 80 34 bf 3d 87 26 0d 3e c0 40 bc 3d 3b b5 28 3c
       0.093361855 0.13784228 0.091920376 0.010297115
000040 8e 33 98 bd 26 0d 47 bd 71 ef 88 3d 45 46 1c 3e
       -0.07431708 -0.048596524 0.06686295 0.1526118
000050 c1 70 c1 3d 3a b2 ba 3c 8f 4e c3 bb 72 ac 81 bd
       0.09445334 0.022790063 -0.0059602926 -0.063317195
000060 26 ca 15 bd 66 de 94 3c 68 62 31 3d 83 e3 e1 3a
       -0.036569737 0.018172454 0.04330674 0.0017233941
000070 34 38 22 bc 09 9c 51 bd 52 80 85 3d 4c 47 03 3d
       -0.009901095 -0.051174197 0.06518616 0.032050416
000080 61 fa 8b 3d a5 15 3c bd 4c b5 d2 3d 66 a9 44 bd
       0.06834865 -0.04591908 0.10288486 -0.048013113
000090 5e 39 0f 3e 0c 6a ea 3d 1d 62 09 bd b6 d5 0f 3d
       0.13986728 0.11446008 -0.033540834 0.03511592
0000a0 f8 57 61 3b 38 37 6d 3c 0a ba b2 3d 4b d6 dd 3d
       0.003438471 0.014478497 0.087268904 0.10831889
0000b0 ec 89 ec 3d 18 cc e3 3c bd cb 9b 3c 55 f1 67 bd
       0.11549744 0.02780728 0.019018048 -0.056626637
0000c0 92 a3 94 3c 8c 99 36 bd ff 82 67 3d e4 cc 0c 3e
       0.018144403 -0.044580027 0.056521412 0.13750035
0000d0 93 97 b5 3d c1 31 c8 3c 6b 35 8f bd 54 39 1b 3e
       0.08866801 0.024437787 -0.069926105 0.15158588
0000e0 cf 2c 90 3d 13 5b 40 bd bd 88 e9 bd 61 14 1b 3e
       0.070397966 -0.046961855 -0.11403034 0.15144493
0000f0 7b 88 c9 3d b1 9c a7 3d c5 09 2a 3e 47 3e c4 bd
       0.09840485 0.081841834 0.1660529 -0.09582191
000100 85 03 58 3c 05 d4 ab bd 7c ad 4b bd 65 36 d5 bd
       0.013184433 -0.08390049 -0.049725994 -0.104107656
000110 93 5c 40 bc 5a 01 3d be 10 58 9c 3d 3c 4b 83 bd
       -0.011740821 -0.18457547 0.07633984 -0.06410834
000120 93 a4 52 be ae 4c 28 3e 63 9a fe 3b 70 a2 a7 3c
       -0.20570593 0.16435501 0.007769869 0.020463198
000130 92 3e 08 be 46 95 ed bc 5b b8 c8 bb 1f 79 e5 bd
       -0.13305119 -0.029001843 -0.0061254925 -0.11204743
000140 db 58 07 bd 6a 72 6c bd 57 b2 9f bd f7 15 36 be
       -0.033043724 -0.0577263 -0.077976875 -0.17781816
000150 25 85 91 bd c6 a8 3d be aa cf 32 3d c8 52 cb bd
       -0.071054734 -0.18521413 0.043655075 -0.09927899
000160 8b dd 8d 3b ca 3b f5 bd f0 1c 50 3d ec 9a cd bd
       0.0043293885 -0.119742945 0.050808847 -0.10039315
000170 9c 72 14 3d d5 f4 b5 3d ed 1e a2 bc ec ee ed bd
       0.036242113 0.08884589 -0.019790137 -0.11617836
000180 9e 44 42 bb 70 08 35 bd 4b 80 81 be 9e 5a ec bd
       -0.002964295 -0.0441975 -0.25293192 -0.11540721
000190 3c ba 25 be 7e f6 c3 3d 0b 0c 02 3d 57 05 cb bc
       -0.16184324 0.09568499 0.031749766 -0.02478282
0001a0 6e 28 16 bd 12 e9 58 bc 2b eb a0 bd c3 62 a8 bc
       -0.03665965 -0.013239162 -0.07857355 -0.020554906
0001b0 9d 7a eb bd 8f 7f cc bb b6 d1 c7 3d 1f b9 87 bd
       -0.11497996 -0.006240792 0.09756796 -0.06627106
0001c0 f3 d9 da bd 6d dd 93 3d 96 ff d2 bc bf d6 c7 3d
       -0.10686102 0.07219968 -0.025756638 0.097577564
0001d0 96 58 3d 3d 79 bf 95 bc 2e 33 fa bc 88 55 ac bd
       0.04622706 -0.018279778 -0.030541983 -0.08414751
0001e0 f9 ff 8f bd fd f9 06 bc 64 e0 1a bd f9 15 0f 3e
       -0.07031245 -0.008238313 -0.03781165 0.13973226
0001f0 58 d9 57 bd e1 be b6 bd 99 d0 1c be 20 d0 15 be
       -0.05269751 -0.08923126 -0.15313949 -0.14630175
000200 ea 30 b2 bd 4a 4a b8 bd e5 59 dc 3b d9 68 ed bd
       -0.08700736 -0.089985445 0.0067245835 -0.11592264
000210 46 18 1a bd f8 ea 0a 3e 41 c1 55 bd b2 ec f6 bd
       -0.037620805 0.13566196 -0.052186254 -0.12056865
000220 27 21 ac bd a8 d1 e4 bd 1c 66 f5 3d 79 2a a0 3c
       -0.08404761 -0.11172801 0.119823664 0.019551503
000230 6a fe 04 bd 2d 1f b7 bd 45 2d 9c bd 54 7a ee bd
       -0.03246919 -0.08941493 -0.07625822 -0.11644426
000240 ae e1 94 bd 2b 25 d1 bc 5a a8 40 bd 10 92 9e 3d
       -0.072696075 -0.025530418 -0.047035553 0.07742703
000250 5a 0e b8 3d af 5b 88 3d 53 8b 30 3d 01 1f c5 3d
       0.08987112 0.06658112 0.04310162 0.09625054
000260 44 12 7a 3d cf bd 49 bd be 5d 58 3d 6f 1b 2a 3d
       0.061052576 -0.04925328 0.052823775 0.04153007
000270 fb 81 8f bb 11 70 07 bd 3d 2d d4 bd 9a 4e 02 3e
       -0.0043795086 -0.03306586 -0.10360191 0.12725297
000280 bc cd c1 3d 56 da 4a bd 18 f6 b3 bc a8 c4 fe bd
       0.09463069 -0.049524628 -0.021967933 -0.12439853
000290 8e 42 c5 bd d6 4b f5 3d 28 02 b8 3d 6f c3 82 3c
       -0.09631835 0.11977355 0.08984786 0.01596233
0002a0 ac 1b 00 be 6c 5b aa 3d de c0 a9 bd 8a 92 c6 3d
       -0.12510556 0.083182186 -0.082887396 0.09695919
0002b0 e5 89 e5 3d f4 de c6 bd 7f ec c2 3d c5 59 e2 3d
       0.11207942 -0.09710494 0.09517764 0.110522784
0002c0 4c 10 07 3c 73 ac c3 bd ca 58 6e bd 5c 6b d8 3c
       0.008243632 -0.095543765 -0.058190145 0.02641838
0002d0 0c 3e d1 3c 3f e0 04 3e db 84 3e bd ed 1f 07 be
       0.025542282 0.12976168 -0.04651342 -0.13195772
0002e0 0a 2f 1d 3c 37 2e 95 bd 48 99 f3 bc ba 2d 19 3d
       0.0095937345 -0.072842054 -0.029736176 0.037397124
0002f0 66 5d f3 bd b6 02 29 bb 9d 9c 54 3d 04 79 84 bd
       -0.11883049 -0.002578897 0.05190717 -0.064683944

hist_encoder.bias_hh_l1 f4 [192]
000000 e2 95 c3 bd 9c 85 90 bd c1 4c 79 3d c0 52 1c 3d
       -0.09550072 -0.07056734 0.060864214 0.038164854
000010 af c3 e9 3d b6 00 51 bd a9 5b 1d 3e ce 7f 48 bd
       0.11414277 -0.05102607 0.15366997 -0.04895001
000020 8e 36 e7 3d a1 e4 18 3e 77 b4 10 3d 9e 9f ac 3b
       0.11289702 0.14930965 0.035328355 0.0052680513
000030 be a9 07 3e 7a be d7 bd 0c 57 09 be 15 34 08 3d
       0.13248345 -0.105343774 -0.13412112 0.033252794
000040 06 4f 14 bd 25 bd 83 bd c8 a9 e4 bb 4d 55 76 bd
       -0.036208175 -0.06432561 -0.0069782473 -0.060139943
000050 24 0c 5d bd 1c e5 0d be 75 c2 45 3e 03 08 85 bd
       -0.053966656 -0.1385693 0.1931246 -0.06495669
000060 49 15 d9 bc 15 54 8f 3c 27 85 11 3e 32 98 84 3d
       -0.026499407 0.017496148 0.1421095 0.064743415
000070 02 9e b8 bd 89 bc 25 3c 21 3f 43 3e d2 ab 77 3d
       -0.090145126 0.010115751 0.1906705 0.060466595
000080 0e ee 88 3d 10 77 dc ba c7 7b 8e 3b 5a 30 4a 3d
       0.0668603 -0.0016820151 0.0043482515 0.049362518
000090 3e 5b 83 3d fb 6e 75 3d d6 3c 1e 3d 3e 99 8e bc
       0.064138874 0.059920292 0.038632236 -0.017407056
0000a0 3e 38 44 bd 03 0c ae 3d a3 a1 45 3e 34 1b 29 3e
       -0.0479052 0.08498385 0.19299941 0.16514283
0000b0 36 7c cd 3d 25 e5 85 3c 01 e0 43 bc 1c d8 d9 bd
       0.10033457 0.016344616 -0.011955262 -0.10636923
0000c0 f4 ed 6f bd a3 17 90 ba cc 8a 09 3e e4 d4 c8 3c
       -0.05857654 -0.0010993372 0.13431853 0.024515577
0000d0 c8 9e 33 3e 37 e0 0c 3e e8 e2 ed bc 55 5e 6e 3e
       0.17541039 0.13757406 -0.029038861 0.23278172
0000e0 98 c9 d7 3c 78 ed e6 bd fa 9e bf bd 78 c6 e7 3d
       0.026341245 -0.11275762 -0.09356494 0.11317152
0000f0 3b e7 b6 3d 9d e3 78 bd ac 88 ac 3c 77 45 9e bd
       0.089308225 -0.060763944 0.021061264 -0.07728093
000100 2b 21 75 3d 69 70 4f 3d 92 8b db bd fc 25 87 bd
       0.059846085 0.050644312 -0.1071998 -0.06599042
000110 5a d5 00 bd d7 99 e0 bc 8c c2 8d 3d 10 3e 44 3c
       -0.031453468 -0.027417107 0.069218725 0.0119776875
000120 66 9f 5a bd 3a c6 49 3e d5 74 63 bd c0 ba fc bd
       -0.05337467 0.19704524 -0.05553134 -0.12340307
000130 45 79 a5 bc 34 c1 3d be 76 6f f1 bb 25 ce 19 be
       -0.020199427 -0.18530732 -0.0073680235 -0.15020044
000140 2b a2 66 3c bf 76 8a 3d 97 a1 d7 3d 4f 34 2a be
       0.01407675 0.0676093 0.10528868 -0.16621517
000150 73 1a ee bd 92 4b 3f 3b d0 ba 82 bc 9d 1b 74 bd
       -0.116261385 0.002918933 -0.01595822 -0.059596647
000160 48 20 4c 3d 8d a0 8b bd 19 c0 f7 3d 55 d5 87 bd
       0.049835473 -0.06817732 0.120971866 -0.06632487
000170 c3 4c 01 bb a3 8d b2 bd 36 bb 14 be 6e d4 4f bd
       -0.0019729591 -0.08718421 -0.1452454 -0.050739698
000180 4b 15 b5 bd f4 fe cc 3d a4 c9 09 be 4e 63 2d be
       -0.08841952 0.10009566 -0.13455826 -0.16932413
000190 fe 2c 7b bd 6b fd a8 3d 26 17 02 3e c2 52 2c 3d
       -0.061322205 0.08251461 0.12704143 0.04207111
0001a0 54 d5 28 bb 35 a0 e8 3d 45 44 b0 3a 84 d7 80 bd
       -0.002576192 0.11358682 0.001344808 -0.06291106
0001b0 bd 2d a5 3b 2a 50 7e bc e4 a3 a3 3c b0 92 d6 bd
       0.005040853 -0.015522042 0.01997561 -0.10477197
0001c0 e5 ed ed bd 9a 89 85 3d 05 27 e9 bc bd 6f 1f bd
       -0.116176404 0.06520386 -0.028460989 -0.03892492
0001d0 c3 cd b3 3d 38 83 42 be 1b aa c8 bd 0b ca ad 3c
       0.0877948 -0.18995368 -0.0979807 0.021214506
0001e0 29 01 19 be 80 c1 96 bd c9 27 6a 3d fa c6 e8 3d
       -0.14941849 -0.07361126 0.05716685 0.11366077
0001f0 5e 95 a6 3c d6 13 6f bd 6a 19 90 bd 20 e6 11 be
       0.020334896 -0.058368526 -0.07036097 -0.14247942
000200 19 7b 53 bd 80 c2 c9 bd 5f 00 b0 3d 76 0b 4b bd
       -0.051631067 -0.09851551 0.08593821 -0.049571477
000210 2e 86 eb 3d d4 e3 1c 3d 54 bc 03 3d 0b 0c c5 bd
       0.11500202 0.03830321 0.032162026 -0.09621438
000220 37 44 6a 3d e4 84 06 3d 85 18 b3 bc aa 28 2a be
       0.05719396 0.032841578 -0.021862278 -0.16617075
000230 ab 3d 1c bd 88 a7 6d 3d f9 a6 43 3d 8b f8 ba 3d
       -0.03814475 0.0580211 0.04776666 0.09129437
000240 75 c4 02 3d f1 e4 db 3d 72 35 45 ba 13 7f 29 bd
       0.031925637 0.107370265 -0.00075229176 -0.041380953
000250 c9 76 76 3d de a7 da bc 7f b5 ff 3d 4e 98 bc bd
       0.060171876 -0.026691373 0.124857895 -0.09208737
000260 9f d4 9d 3d 08 44 64 bd b0 9f 89 3c 5c 08 b0 3d
       0.0770657 -0.055728942 0.016799778 0.085953444
000270 ea 6f eb bc 8d ca ed 3d 93 6c 89 3c a1 8a 9e 3d
       -0.028739888 0.11610899 0.016775405 0.07741285
000280 da a9 aa bd 3d 09 d8 bd 82 ba 86 bd ce 4a 81 3b
       -0.08333178 -0.10548637 -0.06578542 0.003945685
000290 22 42 b7 bd 7e 16 f7 3d 4e 8a 85 bd 84 2a c1 bc
       -0.08948161 0.12064837 -0.0652052 -0.023579843
0002a0 24 42 e0 3d fa c5 66 3d 1a 21 9b 3c 63 0a 83 bd
       0.10950115 0.05634115 0.018936682 -0.063984655
0002b0 85 60 08 be 7b 40 e8 3d 67 16 f4 3d f0 57 83 bd
       -0.1331807 0.11340424 0.119183354 -0.06413257
0002c0 2c ce 8f bc 13 54 15 bb 0c a9 c8 3d cb 4f 65 bd
       -0.017554365 -0.0022785708 0.09797868 -0.0559843
0002d0 70 cd 4f 3c 5f 8b a8 bd 4e 9a c7 bd 2b eb 76 3d
       0.012683257 -0.08229708 -0.09746228 0.060282867
0002e0 22 b7 9d bd da a5 35 3d c8 9c d9 3c 3b 07 61 3d
       -0.077009454 0.04434762 0.026564017 0.054938536
0002f0 b3 28 26 bd 46 90 0b be 20 08 9e 3d 62 9c 19 3c
       -0.040566158 -0.13629255 0.077163935 0.0093756635
