Model/Models/LSTM_0.ckpt (torch, 228991 bytes, 11 tensors)

hist_encoder.weight_ih_l0 f4 [256, 5]
00000000: cc24 30bd 1eae 6d3d 8f70 9b3d 00ba 2d3e
00000010: 877a 01be b015 44bb 68fb 97bd 01ec c23d
00000020: fc43 b63d 5155 51be 8388 cf3d f368 56bd
00000030: 6523 733b 8bdb a3bd 0628 1b3d 9345 f83c
00000040: 9ba6 0a3d 0759 ffbd 91e2 10ba ab66 293e
00000050: 0cc3 863c 9a80 a73c 7676 cbbd ac11 1e3d
00000060: c729 3cbe 26f9 53bd a46e 13bd 09f8 a3bb
00000070: be2b 3f3d ebba f5bc 2e6e b83d c575 8cbd
00000080: d66c 733e fdf0 07bd 1d59 30bb e87a bfb9
00000090: 954c bebc 55d9 1e3e 6bb9 163d 02fb 94bd
000000a0: 15e9 21bd f23a 7dbd 3531 353d d848 053e
000000b0: 8e8a 1c3e 6ebe 61be 4c5c eb3c 056d 983c
000000c0: 8153 f03d 7fdb c7bd f0b3 97bd fe08 1b3d
000000d0: 50e0 37bd cb96 ce3d c7cd ce3c 4f3e f13d
000000e0: c53c 663d 04f4 8bbd 26db 3f3d 2355 07be
000000f0: d3e1 e43d e917 f0bc 93bf 823d 15dc da3c
00000100: 704b 6d3b 7f03 8b3d f02a 153e 2772 79bd
00000110: cdb4 c1bd b207 d1bd 30ba 313e 34c7 d13d
00000120: eccb 023d ec3d 74bd 5dea dbbd 70d6 9bbc
00000130: 897b dabc 42f4 323d 8732 89bc dc8b e33d
00000140: 3fd2 8abc f1e1 47bd 869b b13d 0610 2fbd
00000150: 9f23 203e 16a9 07be 7659 c63c 24f9 2cbc
00000160: 78e0 36bd c243 783d 0ed4 98bd 88fc b5bd
00000170: 13a1 7abd ef10 4b3e b105 f4bb ca49 ae3d
00000180: aeb5 423e 0e2e 35bc b607 c2bd b346 32be
00000190: 7e8c 0dbd db1e d43c ade2 1bbd 0470 0abe
000001a0: 605f 71bd 1faf 37be eadc 14be c4cd ccbd
000001b0: 7ae8 dcbd 6a79 38bd c29a 673e b18f 833d
000001c0: 6282 f53b b3d2 2bbe 02fd 40bd 92c3 233d
000001d0: ad97 213d 60d2 02be 3324 a2bd 4c62 93bd
000001e0: b31f c3bd 81f3 b4bd 8bac 96bd 8b39 95bd
000001f0: 318c 01be b7cf 03bd 5b88 cebd 57e3 0fbe
00000200: 1102 a53d d91d b43d 7aca 133e 2ccb 9b3d
00000210: 75d6 26bd f9d6 703e 9257 e03c 63f3 1cbe
00000220: ccab 09be 758d 2ebd 4e40 213d 52e8 27bd
00000230: ac53 063e a8ea f8bd 73a1 413c fbf9 a4bd
00000240: 45bc 7e3d d284 46bd 8b1f 1bbd 6aea 75bd
00000250: 7b62 073e ddd0 a3bd 2401 0f3d 6728 43bd
00000260: a583 043d d0ae 80bd 1158 04bd b076 d6bd
00000270: c85e 103d 1de4 a93d 6d32 3d3d 92f1 46bd
00000280: 49f1 473e e9fa 813d e675 08bd 12c2 8bbd
00000290: 091f a93d 08ec c3bd 3104 0cbe 69e2 c23d
000002a0: 9013 7b3d 018b 173d 137b c63c 0290 d83b
000002b0: 7f0f 863e 702f 2ebb 5075 02be 378a d2bd
000002c0: d023 99bd 7433 a53d 55b7 a73d 0398 85be
000002d0: 071e d33d d7af d43d deba 83bc fc55 213d
000002e0: d6a9 b03d be75 083e a451 243d 8e7c 06bc
000002f0: 0765 4f3e d5f4 a83d 76a8 a2bd fc18 b0bd
00000300: f11e ce3d 45ba 153e 038c 03be e7ee d43d
00000310: fd81 cf3d ac32 4ebb 7bb1 34bb faae 6dbd
00000320: 4975 ccbd 1a7b 8fba f92a 043e f02a 3cbd
00000330: 995c a5bd ac61 84bd 75aa b7bd eeef 52bd
00000340: 7fcc 72bd 6725 8a3d 8fe2 213d 54ed ab3c
00000350: 5d48 01be b4aa 913b bd91 29bc 0737 0f3e
00000360: a9d6 c63d 5caa 97bd e2a4 933d 123b bbbc
00000370: 910c bdbd 65d0 f63c b63c ee3c a877 a93d
00000380: 97a6 b4bd 13d4 a03d 69ff 9c3d 91e1 de3c
00000390: 7692 03bc 1183 43bd db89 613d 5fde e63d
000003a0: 4a83 f83d ab06 e43d 0c04 acbc 08cd ad3d
000003b0: 8cd7 2b3d cf05 1cbe 7d00 babd 4db2 26be
000003c0: 99ea dcbb 6484 ccbd 388d dbbc d48b dabc
000003d0: aac7 ff3d 8cfd d8bc bea3 2cbc 47e1 f43d
000003e0: 5e8e 42bd 20a0 a83d 614b afbd cfa4 fabd
000003f0: 54f7 973d 76d2 053d 20cd 893b 3f6b 33be
-0.043003842 0.05802738 0.07589828 0.16965485 -0.12644397 -0.0029920153 -0.07420999 0.095176704
0.08899686 -0.20442702 0.101334594 -0.05234618 0.0037099954 -0.08000859 0.037879966 0.030306613
0.033850294 -0.124681525 -0.0005526925 0.16543071 0.016450427 0.020447064 -0.09934704 0.038591072
-0.18375312 -0.05175128 -0.035994187 -0.0050039333 0.046672575 -0.029996356 0.0900539 -0.068584
0.23771986 -0.03318881 -0.0026908584 -0.0003652193 -0.023229877 0.15512593 0.036797922 -0.072744384
-0.039528925 -0.061823793 0.04423638 0.13016069 0.1528723 -0.220453 0.028730534 0.018606672
0.11734677 -0.097586624 -0.07407367 0.037850372 -0.044891655 0.10087355 0.025244607 0.117794625
0.056210298 -0.06833652 0.046839856 -0.13216071 0.11175885 -0.029308276 0.06384196 0.026716271
0.0036208294 0.06787776 0.1456716 -0.06089988 -0.09458313 -0.10206546 0.17356181 0.10243073
0.031932756 -0.059629366 -0.107380606 -0.01902315 -0.026670234 0.043689974 -0.016747726 0.111106604
-0.016945956 -0.04879946 0.08672242 -0.04273989 0.15638588 -0.13248095 0.02421258 -0.010557447
-0.044647664 0.060611494 -0.07462321 -0.08886057 -0.06118877 0.19830678 -0.0074469675 0.08510168
0.19014618 -0.011058344 -0.09474127 -0.17409782 -0.034557812 0.02589362 -0.03805797 -0.13519293
-0.058928847 -0.17937897 -0.14537397 -0.10000184 -0.10786529 -0.045037664 0.22617629 0.06423891
0.0074923495 -0.16779594 -0.047116287 0.039981432 0.03945129 -0.12775564 -0.07917061 -0.07196483
-0.095275305 -0.08835507 -0.07357129 -0.07286366 -0.12651135 -0.032180514 -0.100846015 -0.14051567
0.08057035 0.087947555 0.14432707 0.07607111 -0.040731866 0.23519506 0.027385507 -0.1532722
-0.13444442 -0.042615373 0.039367966 -0.040993042 0.13117856 -0.12154132 0.011818278 -0.080554925
0.062191267 -0.04846651 -0.03787188 -0.060038008 0.13221161 -0.07998822 0.034913197 -0.047645953
0.03235211 -0.06283343 -0.03231055 -0.104718566 0.03524664 0.08295462 0.046190668 -0.048570223
0.19525637 0.063466854 -0.03331556 -0.06824125 0.082578726 -0.09566504 -0.13673474 0.095158406
0.061297953 0.0369978 0.024228608 0.006608964 0.26183698 -0.0026578568 -0.12740064 -0.10280269
-0.07477534 0.080664545 0.08189265 -0.26092538 0.10308462 0.10385101 -0.016080316 0.03938864
0.08626144 0.13326165 0.04011692 -0.008208407 0.20253383 0.08249823 -0.079422876 -0.085985154
0.10064495 0.14621837 -0.12846379 0.103971295 0.10132215 -0.0031463308 -0.0027571607 -0.0580282
-0.09983308 -0.0010946721 0.12907018 -0.045939386 -0.08074302 -0.06463942 -0.08968059 -0.051498346
-0.059277054 0.06745415 0.039522704 0.02098719 -0.1262526 0.004445398 -0.010349688 0.13985835
0.09708912 -0.0740554 0.07209183 -0.022855315 -0.092309125 0.030128667 0.029081684 0.08274776
-0.08820837 0.0785295 0.07665903 0.027207168 -0.0080305245 -0.047732417 0.05506311 0.11272883
0.121344164 0.11134084 -0.020998023 0.08486372 0.04195361 -0.15236591 -0.090821244 -0.16278954
-0.0067418334 -0.09986189 -0.026800737 -0.026678003 0.12489255 -0.026488088 -0.010537086 0.11957031
-0.047499053 0.082336664 -0.08559299 -0.12238466 0.07420221 0.032671414 0.004205361 -0.1752138

hist_encoder.weight_hh_l0 f4 [256, 64]
00000000: 05da a4bd 6a91 f5bd 8f96 403d de45 b13d
00000010: ec45 28be a1cd c63d 943a d43d 3ac2 39be
00000020: 2f7d e6bc 1e93 813d 88ea 493e 56a2 1d3e
00000030: fabe 063e 0d14 91be 7638 f43d 69cf 383e
00000040: 4d98 25be 28e7 33be 0303 13bd d681 d43d
00000050: 8d05 573c 6d61 3c3e 1aa2 203e 5541 8bbe
00000060: 12b8 803d 45b7 723e 1a4f 513d 2572 22bd
00000070: 8b93 00be d3aa adbd bba7 d9bc e5d5 ab3d
00000080: bcd5 ab3d d7bc febd 4530 e43d 01c8 e8bd
00000090: a8df cebc 2b77 913c 03b3 f53d 2a70 403e
000000a0: 8404 97bd 2006 083e d3d1 c23d f625 893d
000000b0: 6861 e2bc cf61 ccbd 80cd 2fbd 7d8c bf3d
000000c0: d619 5abd 0df3 183c f22a d2bc 5ff4 8d3d
000000d0: 9a6e ee3d 9357 853c 8a42 9dbd 11ae 473c
000000e0: f305 723d a20a 523d a2ea 0e3e d984 a6bd
000000f0: 8d4c 983c 6227 c93d 80f1 c8bd 7bd5 6b3d
00000100: 6bce ac3d f655 09be 06db adbc 17a7 f23d
00000110: e9b6 1abe 62f2 04bd d844 7abd 6d10 ebbd
00000120: 684e 3a3d 3acf dbbc 2b3b 243e 1015 5dbc
00000130: 344d a1bd b1f1 a9bd 32ae 433d bbec 603d
00000140: fb0c 9abd 14ec 47bd 7ad0 01be 4720 1c3c
00000150: 8b3a 953e 0c4a e1bb 8f05 13bd 5d6d 5fbe
00000160: b270 2f3e 4193 0c3e 48cc b4bc 10a9 323e
00000170: d54e 2cbe 2476 92be 2372 62bd 4816 b53c
00000180: 6b1e 683e 7c3a d6bc 6960 783c e359 813d
00000190: 44c7 b83d ba72 dcbd df12 223e 90a4 d9bc
000001a0: d005 583e 8e2c 0b3b 42fa 803d 9a07 3a3d
000001b0: 1450 283d fc55 95bd fb46 9abd e982 dc3d
000001c0: 5ba7 9d3d 18a7 1ebd 3515 933d 0b5c cc3d
000001d0: 619e 053a 7437 88ba 255f dabd dc04 2cbe
000001e0: 05cd c6bc 90ba d2bd 6abc 12bc 6a7d 2dbb
000001f0: 34e5 87bc 8c78 c4bc 2224 aabd 5b07 1b3b
00000200: e013 543d ba31 33be 3a2f cebc ac1c df3d
00000210: f356 0ebe fd21 57bd 6f3e 72be 4386 a6bd
00000220: 6388 34be 7673 87bd dcf4 38bc 0b7e 153e
00000230: ac24 d33c 086a 083c 9791 60bd 4c9f 0dbe
00000240: 0123 a7bd c9b0 59be 263a 2ebe ab63 fdbc
00000250: c750 cabd eee7 963d 7fab 813e 3fdf 1abd
00000260: 7533 413e 05cc 6a3e 918d 3fbe b18a 1a3e
00000270: 0907 13bc 6852 87bd 9892 4abe 0bfe 19be
00000280: abd2 54bd 1a24 aebd ae85 b93d 82ad 1cbe
00000290: dfb5 62bd 9a26 00bd 9500 1e3e de8f e43d
000002a0: 9717 843d 4b9c 0d3c 2e80 0b3e 8b72 3abe
000002b0: 1e46 283e ca8b a53d 3b80 3dbc a1a9 1bbe
000002c0: 7af1 243e bd4f cf3d 975c 423e 11ae 8a3b
000002d0: 28bd 61be 3616 f03d 52b6 0d3d 8761 d9bc
000002e0: b46c 28be f82d 9a3d c84b da3d 2283 eabd
000002f0: 07a5 d13d bacb 523e 99f6 11bd d072 283e
00000300: 065f cd3b adbb 823d 1fdb 34be 7e95 ea3d
00000310: 6d3e ccbc 1701 c73c 0759 24bc 9bbb c2bd
00000320: 0ef7 69bd 86d6 ed3c 9a93 15be caa4 65bd
00000330: 279d 1bbc e16c 85bd 569c 743d 03c6 e13d
00000340: 4f4f e5bc c219 763d b4ed 6a3b 5638 803c
00000350: 72ac 713d 2efd 63bd 4f8a 5cbd 613e cbbd
00000360: 6d4e 35be aab6 a13d 7180 a83c 558a 273e
00000370: a375 013d 2947 42bd 8c39 4abd 7653 ccbd
00000380: 42de 6a3d db7c 1fbe 91f5 253d 9090 823c
00000390: 8278 153d 53fd 563d 1025 71bd 65e9 583d
000003a0: 0550 043e eb65 223e 5a6d 963d 325b a63d
000003b0: 7bea 073e 3f1d 043d 92bd bb3d 4a9d 70bd
000003c0: 11f3 023e b18e 63ba 3c27 ce3d c3a6 103e
000003d0: d42b 13bb 8ce8 8c3d b78b 9cbb 6706 613c
000003e0: 0a75 d03d 052c 973c 4a01 ad3d 27e0 0e3d
000003f0: 1fdb 35bd c74f 3a3d f9f0 633c a08a 1fbd
-0.080493964 -0.11990626 0.047018584 0.08655904 -0.16432923 0.09707189 0.103627354 -0.18140498
-0.028135864 0.063268885 0.19718373 0.15393957 0.1315879 -0.2833561 0.119248316 0.1804787
-0.1617138 -0.17568648 -0.035891544 0.10376327 0.013123882 0.1839654 0.15686837 -0.27198282
0.062851086 0.23702724 0.051100828 -0.039659638 -0.12556283 -0.08479848 -0.026569238 0.083904065
0.08390376 -0.12438362 0.11142019 -0.11366273 -0.025253132 0.017757019 0.119970344 0.18792787
-0.07373908 0.13283587 0.09512677 0.066966936 -0.027634338 -0.09979593 -0.04292059 0.09352968
-0.053247295 0.009335292 -0.025655244 0.06931376 0.11642189 0.01627711 -0.07678707 0.012187497
0.059087705 0.05127967 0.13956693 -0.081308074 0.01859119 0.09821965 -0.098116875 0.057576638
0.084378086 -0.13411698 -0.021222603 0.11848276 -0.15108837 -0.032457717 -0.06110081 -0.11477742
0.04548493 -0.026832212 0.16038196 -0.013493791 -0.078760535 -0.08298052 0.047773547 0.054913264
-0.07522007 -0.048809126 -0.12677184 0.00952918 0.29146227 -0.006875282 -0.035893973 -0.21819063
0.17132834 0.13728048 -0.022070065 0.17447305 -0.16826947 -0.2860576 -0.05528463 0.022105351
0.22667854 -0.026150934 0.015159705 0.06315973 0.09022382 -0.1076407 0.15827511 -0.026567727
0.21095967 0.0021236273 0.06297733 0.045417406 0.041091993 -0.07291791 -0.0753307 0.10767157
0.07697936 -0.03873357 0.07181779 0.09978493 0.00050971477 -0.0010392503 -0.10662679 -0.16798729
-0.024267683 -0.1028949 -0.008956054 -0.0026472458 -0.016588785 -0.023983262 -0.08307673 0.0023655507
0.051776767 -0.17499438 -0.025169004 0.108941406 -0.13900356 -0.052522648 -0.23656629 -0.08131077
-0.17630152 -0.06613819 -0.011288848 0.14598863 0.025774322 0.008326061 -0.054826345 -0.13830298
-0.08160973 -0.21258844 -0.1701437 -0.030931314 -0.09878688 0.07368456 0.25326154 -0.03781056
0.18867286 0.2292939 -0.18706347 0.15091969 -0.008973845 -0.066075146 -0.19782484 -0.15038316
-0.05195872 -0.085029796 0.090587005 -0.15300563 -0.055349227 -0.031286813 0.1542991 0.11160253
0.06449812 0.00864322 0.13623115 -0.18207757 0.16432998 0.08083303 -0.011566217 -0.15201427
0.16107741 0.10122631 0.18980633 0.004232176 -0.22044814 0.117229864 0.034597702 -0.026535762
-0.16447717 0.07528299 0.106589854 -0.11450793 0.102365546 0.20585528 -0.035635564 0.16450047
0.006267431 0.063834526 -0.17661713 0.114542946 -0.02493211 0.024292512 -0.010030991 -0.09508439
-0.057120375 0.029032957 -0.14607087 -0.05606536 -0.009497917 -0.06514908 0.059719406 0.11024096
-0.027991919 0.06008316 0.0035847249 0.015651863 0.059002347 -0.055661373 -0.05384284 -0.09924007
-0.17705698 0.078961685 0.020569058 0.16361363 0.031606328 -0.047431145 -0.049371287 -0.099768564
0.057340868 -0.15574972 0.040517393 0.015938073 0.03649188 0.052487683 -0.058873236 0.052956957
0.1292115 0.15859191 0.07345076 0.08122863 0.13273041 0.032254454 0.09167017 -0.058743753
0.12788035 -0.00086806255 0.10066077 0.14126115 -0.0022456544 0.06880292 -0.0047773975 0.013734437
0.101785734 0.018453607 0.084475115 0.034881737 -0.044398423 0.045486238 0.013912433 -0.038950562

hist_encoder.bias_ih_l0 f4 [256]
00000000: ef49 b93d e2aa a9bd b754 903e b303 ad3d
00000010: 62d2 dc3d d55b d73d d19b 123e 3dc8 8ebd
00000020: cff8 e83d 19f6 2d3e 68b2 d73d b168 a53d
00000030: 8dbb 8c3d 7ebe cd3d ee13 d43d 279d e03c
00000040: 704d 8e3d 5739 5e3d 7133 fd3c c502 d7bc
00000050: 60c2 793e 2511 6bbd 78ba 883d f0f7 16bb
00000060: 1ebc 263e 52e5 07bd 56b1 bd3d 0906 0c3d
00000070: 4c39 133e 0fdd 4ebd d3fa 043d 25ae d6bd
00000080: 1cb8 32bd 0321 ccbd bf63 8a3d 63b6 ee3d
00000090: 7374 b03d ba19 be3d 7aa9 06bd beaa 10bd
000000a0: c9dd 353b 8844 263e 9b2c a03d 4926 b13d
000000b0: cf31 a83c d272 133e a161 bb3d 8ec0 a33d
000000c0: e0e9 e03d e6ea ad3d 8cf3 e63c f54b b43d
000000d0: 5719 23bd b5a0 243e 8867 bf3a b318 673d
000000e0: cbb2 c33c 82b7 89bd 06fa 43bd 792c 343e
000000f0: edc8 a53c fe27 f83d 7e97 e23d 1101 1b3e
00000100: 68e2 37bd b274 043b f00c 123e 3da2 61bd
00000110: 464f 9dbd ec09 3e3b cc05 843d f139 a33d
00000120: 7797 6abd 5347 bbbd d7a5 533d 2ee5 42bd
00000130: 6d23 c03d 57fc 9f3c 06d0 cebc e8c2 f9bc
00000140: 3f0d 983d ce45 28bd 74b4 76bd 3754 a13d
00000150: eb8e 953d 5248 6abc 37aa 0e3e 7733 48bd
00000160: 89df 66bc 1ea9 a6bd 744b b43b 74c2 63bd
00000170: e945 fc3d 1394 863d deb4 123e 2e23 31bd
00000180: 3142 b63d 53fe e43d 8e5f be3b 71f6 89bd
00000190: 1dfa eb3d ddce 92bd dd73 9e3d 58af fd3d
000001a0: 9266 db39 296b 3bbd 8790 373c 2d36 d83d
000001b0: 9fb7 8d3d 3b04 c93c 6f46 963d 6c9a f73d
000001c0: b32d 383d 9fba c93c af47 06bc ff73 973c
000001d0: 610f e73d 091d 65bd 20a9 053e 6bd0 a03d
000001e0: 9d98 9ebd 960f 4abd 2806 9cbc 7476 0b3d
000001f0: 9c2e 823c 51d6 7639 a5f3 d53d 0d58 233d
00000200: 691b c3bb de62 9cbd 4edf 89bd ccd0 10bd
00000210: e0f3 dabd 0d2b 0c3e 664d c03a 7e43 75bd
00000220: da6b d5bb d512 383c 53c4 293d 28f4 9a3d
00000230: c7b9 a03d d63d e3bd 5021 f1b9 8513 9cbd
00000240: 4512 28bd 0a87 dbbd 8c2d 4dbb c7b8 95bd
00000250: 626e 25bd 2316 f13d f7a4 253e b906 f1bb
00000260: f897 863d c74e f43d f060 303d 166c 243c
00000270: 93f7 dabc 183e f1bd 6ce6 623d 4f80 eebd
00000280: 30eb 9bbc 04cc 03be 1f49 a1bd 9d46 e53d
00000290: 4bb3 ed3c 4b2d 973d 214a 113d 3dd9 e73d
000002a0: 6636 e63c ca58 e9ba 19d0 82bd ad46 143d
000002b0: 8d11 01bc c821 e5bc 023f 93bd c3d4 21bb
000002c0: be7a ed3d 5d69 b93d ba76 8b3d bcb2 cc3d
000002d0: b9ae 283d 9037 b8bd 4eba 063e 87e6 763c
000002e0: 14e6 73bd 30b9 543d bda5 83bd 3917 9dbd
000002f0: d8ef a13d 8a88 263d 8b83 1abe c988 c53d
00000300: ea77 d53d 8233 6a3c 5a0f 863e bf70 c23d
00000310: 8354 273e b2e9 d73d 58a1 24bc e34e 11bd
00000320: 2fa1 063e 07ba 803d bd2e 4d3e 89f6 2c3e
00000330: 83fc 83bd e9a2 2d3e aa68 243e 97b2 cdbc
00000340: 711e 023c d7ce 58bd e031 ce3d 1fd1 ba3d
00000350: cf5c 293e 59dc ee3d bd89 0e3d 3683 a63d
00000360: 666e f63c 4823 fe3d 94a0 383e 24ed c0bb
00000370: 990f 46bd 6ce4 0a3d c0fa 383e 82b6 8bbc
00000380: 0b6a eb3c d2c8 a5bd d187 4bbc 4d7f 2cbd
00000390: 2755 c8bc 1059 1b3d 9b45 25bd 72ba db3d
000003a0: f4bc fa3d 8e4f 9f3d 7868 be3d 5f44 e0bb
000003b0: 8844 033d ebce 64bd 7ebb 0b3e 9ed4 e43d
000003c0: fce1 67bc 2c9a 28bd b64f 4e3d 7384 28bd
000003d0: 16ad 2c3e fa21 c5bc 0cd4 9d3d 2f9b 3f3e
000003e0: 2876 94bd 7aa5 f03d 8ea5 1e3e aec3 1a3e
000003f0: 6aa9 1f3e b0bd 76bb 89a9 a63d 699e 133e
0.09047305 -0.082845464 0.28189632 0.08447971 0.10782315 0.105155624 0.14317252 -0.06971786
0.113755815 0.1698841 0.10532075 0.08076609 0.0687171 0.10046099 0.10355364 0.027418686
0.06948364 0.054253902 0.030908318 -0.026246438 0.24390554 -0.057389397 0.06676191 -0.0023035966
0.16282699 -0.03317768 0.0926234 0.034185443 0.14377326 -0.050503787 0.032465767 -0.10482434
-0.04363261 -0.09967234 0.06757306 0.11655881 0.08615961 0.09282251 -0.03287647 -0.035319082
0.0027750602 0.1623708 0.07821008 0.086498804 0.020531563 0.14399269 0.091494806 0.07995711
0.10982108 0.08492069 0.028192304 0.0880355 -0.039819088 0.1607693 0.0014602998 0.05642004
0.023888966 -0.067244545 -0.047845863 0.1759509 0.02023741 0.12117003 0.11064051 0.15137126
-0.044893652 0.0020211157 0.14262748 -0.055086363 -0.07681136 0.0028997613 0.06446418 0.07970036
-0.057273354 -0.091444634 0.05167183 -0.047581844 0.09381757 0.019529505 -0.025245678 -0.030488446
0.074244015 -0.041082196 -0.060230687 0.07877391 0.0730265 -0.014299469 0.1393212 -0.048877206
-0.014091381 -0.08137725 0.005502159 -0.055605367 0.12318022 0.06571212 0.14326808 -0.04324644
0.08899344 0.11181321 0.005809731 -0.06736458 0.11522315 -0.07168362 0.07736943 0.1238696
0.00041847356 -0.045756493 0.011203892 0.10557208 0.069197886 0.02453815 0.07337653 0.120900005
0.044965457 0.02462512 -0.008195802 0.018487928 0.1128223 -0.055935893 0.13052797 0.078522526
-0.077439524 -0.04933127 -0.019045904 0.034048513 0.015891366 0.00023540227 0.10446862 0.039878894
-0.0059541953 -0.07636045 -0.06732045 -0.035355374 -0.10691047 0.13688298 0.0014671504 -0.05987882
-0.006513101 0.011234959 0.041446995 0.075661 0.07847934 -0.11095779 -0.00045991922 -0.076209106
-0.04103305 -0.10719116 -0.0031307666 -0.07310634 -0.040388472 0.117718 0.1617621 -0.0073555377
0.065719545 0.11929088 0.043061197 0.010035535 -0.02672938 -0.117794216 0.05539553 -0.11645567
-0.019033045 -0.12870795 -0.07875275 0.11195109 0.029016158 0.07381686 0.035471085 0.11320732
0.028102111 -0.001780295 -0.06387348 0.036200214 -0.00787772 -0.02797021 -0.07189752 -0.0024693466
0.11595677 0.090532996 0.06809755 0.099950284 0.041182254 -0.08994973 0.13157007 0.01506961
-0.05954559 0.05193442 -0.064280964 -0.07670445 0.07907075 0.040657558 -0.15089242 0.0964523
0.104232624 0.014294507 0.26183587 0.09494161 0.16340832 0.10542621 -0.010048233 -0.035475623
0.13147424 0.06285482 0.2003736 0.1689092 -0.06444647 0.16956677 0.16055551 -0.025109572
0.007941828 -0.052931633 0.10068107 0.09121918 0.1653931 0.11663122 0.034799326 0.08130495
0.030081939 0.12409073 0.18030006 -0.0058876444 -0.04835472 0.033909246 0.18064404 -0.0170548
0.028737089 -0.08094944 -0.012422518 -0.04211359 -0.024454666 0.037926733 -0.040349584 0.10728921
0.12243071 0.07778846 0.092972696 -0.006844088 0.03204778 -0.055861395 0.13645741 0.11173366
-0.014153 -0.041162655 0.050368987 -0.04114194 0.16862902 -0.024064053 0.0770646 0.18711542
-0.07249099 0.11750312 0.15492842 0.15113708 0.1559197 -0.0037649684 0.08137805 0.14415897

hist_encoder.bias_hh_l0 f4 [256]
00000000: d717 2c3e 0cc8 92bd 8859 953e f711 ab3c
00000010: e621 5d3d cf55 a93d 5718 553e 3cc1 a3bc
00000020: 2090 5a3d 2ee2 823d e600 573d 571e 323e
00000030: f727 703d 3453 2ebc 7c73 a23d f174 3c3e
00000040: 2cd2 8cbd 6570 213e 8d97 a2bd 6e2e 7f3d
00000050: 3028 5a3e f6ba 9b3d 163a 223e d798 cd3d
00000060: 60f7 2e3d f636 da3d 6ea5 803d da6a 173e
00000070: 4d29 2d3e 35a3 58bd a039 4b3e 74c7 433d
00000080: 3168 d0bd ab8e 7bbd 8bdc 583d 7eb8 3d3e
00000090: b4cc 193e ea8e 423d 28d4 a6bd 8730 d9bc
000000a0: 51a7 28bd e2ba 6c3d 8a97 5cbd df8e 42bd
000000b0: 0955 a8bc bb76 c13d c822 583d bc63 b83d
000000c0: 795f 003e b22b d83d 2861 babc 37b0 d33d
000000d0: e7c8 b43c b9c2 443e 9254 983c b538 063d
000000e0: 31b8 f23b 0605 30bd c55c a43c 3dd4 5c3d
000000f0: de96 623d babd 703d 5083 b8ba 44bd b4bd
00000100: 8a09 9dbd ce05 4ebd 7f53 d0bd b514 193e
00000110: 5398 f43d 3ffc a63d 5d1c 983d 3a82 7d3d
00000120: 2c40 71bc 7f9d 26bc 413b 23bd 8bb7 b93d
00000130: 852e 683d fe16 6abd ad73 373d 8f83 d5bd
00000140: 2b27 883d 3448 433d b78e 0a3d fa67 3bbd
00000150: 9e41 223d 8fbf d13c e3e8 c43d c0a9 d9bd
00000160: 2111 6dbc 705e 96bd dde7 25bc 70bf 5fbd
00000170: 2d57 32bc 1a88 583e 3797 85bd 15e5 7bbc
00000180: 172f b03c df8b 23bd 022c bfb9 55d8 793d
00000190: dec2 c63c 9d3e 053d fde9 d63d 5cd8 8abc
000001a0: 03f7 0e3b c8d2 e33d 374b 0bbd c141 adbd
000001b0: fd49 183e 1f42 dabd 379f d5bd 821d 65bc
000001c0: 6862 0c3d 4db0 463e aac8 dfbd c2e9 1c3c
000001d0: 5abf 263e 88f1 d83d 1e82 8c3d 38a6 a3bd
000001e0: 07d3 ed3d 8711 a1bb 6449 c5bd 92a3 303e
000001f0: 6ffd 85bd 0b2d b33d 8ef7 52bd 230e b63d
00000200: 503e 203c 904d 55bd 86ca c93d 030c 1a3e
00000210: 091e 43bd e473 d53d d057 31bd bdbb 65bd
00000220: 230c 84bd ceb3 d4bd 1d1b f93d bafc 863d
00000230: cb8a b4bd b6da 20be 7002 d73d 87a8 173d
00000240: 25f6 a6bd 22fa 1fbc 9894 1abd 4b84 993c
00000250: 8ece 49bd a076 6cbd d514 cabc 2213 9abd
00000260: a2f4 863b e778 cb3d ed76 833d 55d6 843d
00000270: a201 6bbd d8b2 7abd 7f53 f4bd 9dc2 06be
00000280: 50fe 6ebd 9d93 4fbd 1d73 e73d a58c 09be
00000290: 1549 093e 6b71 ca3d c221 8a3d fbd9 a73d
000002a0: 4579 8d3d 3bb0 d03d 69f7 223d d9a2 50bc
000002b0: ee60 4d3c 2ce6 473d d512 2cbd c465 c73d
000002c0: d497 083e 7cde 093e 7a73 64bd d864 b63b
000002d0: 24ee b83d 8cbe 803d 19b8 c6bd b13d 3c3c
000002e0: cb59 f0bc aff9 f83d ebbb 713d ec81 0cbe
000002f0: ea5b 9dbd 4bb4 cf3d 69d3 90bd f937 2f3c
00000300: 6264 3f3e c88f 80bd e9f2 1c3e e817 96bd
00000310: dcac 563d f298 b83d 6be3 753d a03c ef3d
00000320: 1ba2 31bd 0f4d 013e 0943 363d 3b59 403e
00000330: 0948 c13c 756d 503e 19bb dd3d 3f4f 0d3e
00000340: 57ac c0bd 5a9d 853d 12dc 063e 65d4 90bd
00000350: 2a19 613e 810a ae3d 6eb3 503d 9963 873b
00000360: 2d1b 103e 8374 1bbc e094 1b3e 710c 5b3d
00000370: 5fa3 323e 15bf 43bd 0609 863d e962 843d
00000380: 6f28 a1bd 7e1b c8bc 8764 313d e448 403e
00000390: 464e 0d3e 33bd debc 0514 443d 4c98 283e
000003a0: 10bc a83d e232 343e e923 923c 9701 af3d
000003b0: 5858 553e 645e 343e f1d2 8dbc 0c6f ff3d
000003c0: fe40 ce3c 7bc3 3b3e b9f5 e4bc cf53 873d
000003d0: 687d 053e 4715 973d 3398 0bbc 7d2b 5d3e
000003e0: 1c64 92bc a8e8 d13d db10 de3b 21b2 73bd
000003f0: 0736 34bd 27b3 b13d 7f75 453e 7e63 6c3c
0.16805969 -0.07167062 0.2916987 0.02088259 0.053987406 0.0826832 0.20810066 -0.019989602
0.053360105 0.063907966 0.05249109 0.17394386 0.058631863 -0.010639954 0.07932183 0.18403985
-0.068760246 0.15765531 -0.07939062 0.06230014 0.21304393 0.07604019 0.1584247 0.100389175
0.042716384 0.10655014 0.06281553 0.14786854 0.16910286 -0.05289002 0.19846201 0.047797635
-0.10176123 -0.061415356 0.0529447 0.1852741 0.15019494 0.047499575 -0.08145934 -0.026512397
-0.04117519 0.057795413 -0.053855456 -0.047499534 -0.02054836 0.09446474 0.052767545 0.09003398
0.1253642 0.10555209 -0.022751406 0.10336345 0.022068454 0.19214906 0.018595014 0.032768924
0.0074072112 -0.04297354 0.020063767 0.053913344 0.05531966 0.058774687 -0.001407722 -0.08825162
-0.07667835 -0.050298505 -0.101721756 0.14949305 0.11943116 0.08153581 0.07427285 0.06189177
-0.014724772 -0.010169386 -0.03985143 0.09068211 0.05668499 -0.057150833 0.04478805 -0.104254834
0.06648096 0.04767628 0.03382751 -0.045753457 0.03961336 0.025604038 0.09614732 -0.1062808
-0.014469416 -0.07342231 -0.010126081 -0.05462593 -0.010885042 0.21145669 -0.065229826 -0.015374442
0.02150683 -0.039928313 -0.00036463147 0.060997326 0.024262842 0.032530416 0.104938485 -0.016948871
0.002181471 0.11124188 -0.034007277 -0.08459807 0.14871974 -0.10657143 -0.104307584 -0.013984086
0.034273535 0.19403191 -0.109269455 0.009577217 0.16283932 0.105929434 0.068607554 -0.07990688
0.11612516 -0.0049154195 -0.09633139 0.17249897 -0.06542479 0.08748826 -0.051505618 0.08889415
0.009780481 -0.052075922 0.098530814 0.15043645 -0.047636066 0.10422495 -0.043296635 -0.056087244
-0.064476274 -0.103858575 0.121633746 0.065911725 -0.08815535 -0.15708432 0.10498512 0.037025955
-0.08152417 -0.009764226 -0.037739366 0.01873984 -0.04926925 -0.057730317 -0.024668137 -0.075231805
0.004118518 0.0993517 0.06419168 0.06486193 -0.057374604 -0.061205715 -0.11929988 -0.13160177
-0.058348 -0.050677884 0.11301253 -0.13432558 0.13406785 0.09884914 0.0674472 0.08195873
0.06907896 0.10189863 0.03978673 -0.012734138 0.012535317 0.048803493 -0.042010147 0.09736207
0.13339168 0.13463777 -0.05577419 0.0055662207 0.09029797 0.06286344 -0.097030826 0.011489318
-0.029339692 0.12156998 0.059017103 -0.13721436 -0.07683547 0.1014181 -0.07071573 0.010694497
0.18690637 -0.06277424 0.15327038 -0.073287785 0.052410945 0.09013547 0.060031336 0.11681485
-0.043367486 0.12627052 0.044497523 0.18784039 0.02359392 0.20354255 0.10826702 0.13799761
-0.09407871 0.06524153 0.13169888 -0.07071761 0.21982256 0.08498097 0.050952367 0.004131746
0.14072867 -0.009488228 0.1519351 0.053478662 0.17445134 -0.047789652 0.0654469 0.06464178
-0.0786904 -0.024427172 0.04330876 0.18777806 0.1379939 -0.027189827 0.047870655 0.16464347
0.08238995 0.17597535 0.017839389 0.08545225 0.20834482 0.17614132 -0.017312499 0.124723524
0.025177475 0.18336289 -0.027949201 0.06607782 0.1303612 0.07377105 -0.008520174 0.2159862
-0.017870001 0.10249454 0.0067769117 -0.05949605 -0.043996837 0.08676749 0.19283102 0.014428018

hist_encoder.weight_ih_l1 f4 [256, 64]
00000000: af87 e83d f8cb ed3c 9469 d73d ff6c 1a3e
00000010: 88d5 5e3b f101 1a3e 22ae c7bd a5e3 9abd
00000020: 3e80 db3d a8b1 153e ca64 ba3d 9711 f03d
00000030: 94e7 80bd fd11 8d3c 288d 83bc 6ae2 7a3c
00000040: d34b 713d e45c 02bd de53 cebd 1838 48bd
00000050: 2ee8 c73d ffd5 b7bd 3c76 1f3e 4f38 8fbd
00000060: 313c 313d 6625 ca3d b04d 963d d5f0 87bb
00000070: 7bf4 bebd b9ed d83d 3c49 3dbd 7ce6 f9bd
00000080: 1d2e 26bb 2ec3 7e3d e252 3a3d e885 7ebd
00000090: 186b 84bd 5380 b43d 920c ca3d 755f 9a3d
000000a0: c56e 183e 3c60 09be 51b3 753d 5ad0 0e3e
000000b0: a0a6 90bc ac3f c33c 9cb4 53bd 0806 8c3c
000000c0: 8dca e1bc 1e2f 53bd ada1 23be fb74 b43d
000000d0: 0143 093c e4ec 673d 5a9a cf3d 3541 ecbd
000000e0: 2218 fbbd bd57 f13d e5f6 863c f565 b23c
000000f0: 231c 19be 21c9 fc3d bf32 943b fd0f d5bd
00000100: 7619 a63d 713c 413d 4754 4f3d 6bc7 e53d
00000110: c9e0 213c adc4 2dbd eefe 77be 34ef 4d3d
00000120: 5e8a 093c 3e32 88bd f292 ddbd d93b f3bd
00000130: 6e9b 043d 9aae 723d b31e de3d c1ec c33c
00000140: 1a10 613b f362 10bd ae24 36bd cab2 0d3e
00000150: ea50 d6bd 5c99 763e 598b eabd 4a86 fe39
00000160: ca6d 77bc 740c 043e baf9 803d eb15 723d
00000170: b824 6abd cb4a 00bd c3d0 4cbd 8d95 863d
00000180: 5f98 e5bc 7b55 4abc 3e2e b63c bf6f 13be
00000190: f32f eebd fe17 cabd 688d 90bd 613e b5bb
000001a0: 3f46 893d 85ab d03d c8ff 203e 7381 a13a
000001b0: 06fc b3bd d1e2 1abe 8114 613d c4eb 4f39
000001c0: 68da 173e 94e0 55be 63c1 bebc aa92 903d
000001d0: 0f68 b63d d71f e7bd aadc 82bc 3b50 d3bd
000001e0: 7798 9d3d 05a5 3c3d 841f 87bc 503f c43d
000001f0: 9e0b 44bd f4bc a23d e69f 6ebd c9b8 00bd
00000200: 8787 383d 6bb9 48bd a63e 0e3e 2786 d8bc
00000210: 7c23 12be abec 8f3d a9f0 b1bd 7ea8 783d
00000220: 374a b53d 9148 03bc 9658 953d 4544 943d
00000230: b40c 7f3d e542 90bd 03bd 193e c40b 133d
00000240: 7162 073c 53cf 333c 64e5 a7bd 330e 573d
00000250: 456a 363e 4e7a 2b3d 32e4 0c3d f17d 2fbe
00000260: 5a3f a93d 688e 14bd c1a3 8bbd 9988 373e
00000270: de4d 4c3c 8cc4 ab3c a45a 37be 3305 02be
00000280: 3d13 78bc 92b8 4f3d 3d7b 92bd fe1e ddbd
00000290: 5856 073d ac99 bd3c c2b0 3d3e b604 cc3d
000002a0: 7ad6 55bd 5cf3 b5bd fab8 ec3d e87e 42bd
000002b0: 246c d0bd d83a 123e 7291 e2bd ab2a 133e
000002c0: dbc3 973c 34fd c2bb 8514 15bd 5933 1b3d
000002d0: 3444 24bd 540b adbd e173 e73c ceca 9cbd
000002e0: 6f8f a73b cfa0 63bd c59e f7bc 7c98 cdbc
000002f0: c6b4 f1bd ba89 2ebb fff0 05be b84c ebbd
00000300: a81b ea3d f483 a63b ec34 a4bd ef34 f33d
00000310: bbc6 6e3d cffc f8bd 8311 46be 5a41 93bc
00000320: 976c 01be 9775 f93c f6fd bcbd 19a5 033d
00000330: 6e49 a6bd 6f85 39bd 44c6 2ebe 68b5 8f3d
00000340: bef1 ecbd 167c 1d3d 99bb b2bd 07e9 f9bd
00000350: 3457 d3bd 3d35 ec3d 0c80 8b3d 3f49 a1bd
00000360: 5bc8 83bc 5cf3 3c3d ecbf 933b b0a8 abbc
00000370: d70b ab3c 2a7e 46bd f8bb 1ebe 6b39 943d
00000380: 233e ffbd dd0d c5bc 95b4 89bc f943 c5bd
00000390: 7bef 87bd 4d89 0ebe f456 153e c46f a8bd
000003a0: 0b0d eb3d f7f4 613d 2642 993d 9728 b9bd
000003b0: 60ec a6bc dd4d d9bd 6b0f 8d3d c45b adbd
000003c0: 2075 a33d 338b 30be 8aba 4ebb ecd0 083e
000003d0: b2de b8bb e50c 66bd e0b9 36bd 0331 113e
000003e0: b90b 843c 1929 2e3e a609 32be 0b83 3a3d
000003f0: 80e5 adbd f913 c13d fd75 ab3c f8f6 523d
0.113540046 0.029027924 0.10518184 0.15080641 0.0034001786 0.15039803 -0.0975001 -0.07562951
0.1071782 0.14618552 0.09101255 0.11722105 -0.0629417 0.017220492 -0.01605852 0.01531277
0.058910202 -0.03182687 -0.1007459 -0.04888162 0.09761082 -0.089763634 0.15572447 -0.06993162
0.043270294 0.098704144 0.073390365 -0.0041485825 -0.09323975 0.10592217 -0.04621242 -0.122021645
-0.0025357076 0.062197857 0.0454892 -0.06213942 -0.06465739 0.088135384 0.09865679 0.07537738
0.14886005 -0.13415617 0.059985463 0.13946667 -0.017657578 0.023834072 -0.051685914 0.01709272
-0.027562404 -0.051558606 -0.15979643 0.08811375 0.008377791 0.0566224 0.10136862 -0.11535875
-0.12260462 0.11784313 0.01647515 0.021777133 -0.1495214 0.1234305 0.004522651 -0.1040344
0.08110325 0.047176782 0.050617483 0.112196766 0.009880253 -0.042423893 -0.24218342 0.05027695
0.008394806 -0.06650208 -0.10819043 -0.118766494 0.03237479 0.059248544 0.10845699 0.023916604
0.0034341873 -0.035250615 -0.044468574 0.13837734 -0.10464652 0.2408194 -0.1145236 0.00048546708
-0.015101859 0.12895375 0.062976316 0.059102934 -0.057163924 -0.031321328 -0.05000378 0.06571493
-0.028026758 -0.012349482 0.022238847 -0.14398097 -0.11630239 -0.098678574 -0.07058221 -0.005531118
0.067028515 0.10188965 0.15722573 0.0012321904 -0.08788304 -0.15125586 0.054951195 0.00019828888
0.14829409 -0.20886451 -0.023285573 0.07059224 0.08906566 -0.1128537 -0.015974361 -0.10318037
0.07695096 0.046055812 -0.01649452 0.095823884 -0.04786264 0.07946196 -0.05825796 -0.031426225
0.045051124 -0.049004953 0.13891086 -0.026431156 -0.14271349 0.07027563 -0.086884804 0.06070756
0.08852046 -0.008012907 0.07292287 0.07239584 0.062267974 -0.07044009 0.15013508 0.035899892
0.008263216 0.010974723 -0.0819805 0.052503776 0.17813976 0.041864686 0.03439731 -0.17137887
0.082640365 -0.03626862 -0.06818343 0.17923202 0.012469737 0.020967744 -0.1790567 -0.12697296
-0.0151413055 0.05071313 -0.07152412 -0.10796927 0.03304133 0.023144566 0.18524459 0.09961836
-0.052206494 -0.08884308 0.11558719 -0.04748431 -0.10176876 0.1428026 -0.11062898 0.14371745
0.018526008 -0.0059505943 -0.036396522 0.037890766 -0.040104106 -0.08449426 0.028253498 -0.076558694
0.005113534 -0.05557328 -0.030227074 -0.025097124 -0.11802058 -0.0026632384 -0.13080214 -0.11489242
0.11431056 0.005081648 -0.080179065 0.11875331 0.058294993 -0.121575944 -0.19342618 -0.017975498
-0.1263908 0.030451579 -0.09228127 0.03213987 -0.08119474 -0.045293268 -0.1706782 0.07017022
-0.11569546 0.038448416 -0.08727188 -0.122026496 -0.10319367 0.11533592 0.068115324 -0.07875299
-0.016086748 0.046130523 0.004508963 -0.02095446 0.02087967 -0.048460163 -0.15501392 0.07237514
-0.124630235 -0.024054462 -0.016809741 -0.096321054 -0.06637474 -0.13919564 0.14583951 -0.082244426
0.11477097 0.055165257 0.0748332 -0.09040945 -0.020376384 -0.10610554 0.06887706 -0.084647685
0.07981324 -0.172406 -0.0031544291 0.13360947 -0.0056417817 -0.05616464 -0.044610858 0.14178853
0.016118871 0.17007865 -0.17386493 0.04553513 -0.08491039 0.094276376 0.020930285 0.05150506

hist_encoder.weight_hh_l1 f4 [256, 64]
00000000: 7559 9fbd b802 2d3d ffa2 ccbd a9b2 aabd
00000010: 3d3d 33bd 07f7 8bbd 7d9a a3bd 95c0 09bc
00000020: c21e 113e 9f66 d83c 27b3 eebc d05f 98bd
00000030: b696 153d 1a5d d63d e1f5 8d3d 86a2 f63d
00000040: 2d52 cc3d bee2 9a3d 8a33 eebd 8cef a8b8
00000050: 27e7 e0bc 3dd3 d5bb 9d6b 33bd 8311 febc
00000060: b71b 62bd 9bf1 8f3c e217 eebd 8c30 1fbe
00000070: 6674 1c3c 73bc bb3d 01ab 933d c66f ce3d
00000080: 3cea 1dbe 940c 8a3d c9ad 71bd 049b 933d
00000090: c642 cf3d 1fe2 833d f332 953d 6182 a3bd
000000a0: 34e5 ac3d 608a d6bd 2358 8fbd 92ce 513c
000000b0: fb43 e63d 66e7 303d 6c24 e0bd 23a0 b93d
000000c0: 3dd6 1bbd f51a 083d dc8f e9bd c922 babd
000000d0: 82ac 51bd 17b8 73bc 078c d73c 5ef8 8bbd
000000e0: 5e0b 5dbd 5c5a de3d 38b2 8ab7 1676 98bd
000000f0: 2b53 ab3c c9fb db3c 727d c0bc c04f 503c
00000100: 165d d53d 53bf a63d e114 17bd cace 8b3d
00000110: 0393 72bc 6135 77bd d728 e53c ed67 a4bd
00000120: 4e09 40bb 42f1 703d 9fcd 433d a02d 56bb
00000130: 6db6 df3d 32bf 6e3d 05f8 993d 21c4 d1bd
00000140: 4bad 9c3d d713 983c d2d4 b33d 7857 573e
00000150: a0a6 b4bd a291 193e c922 083d 488a 6dbd
00000160: 1077 03be 5fcf 343c f5c5 d63d e9d3 ca3d
00000170: e803 603d dd10 ebbd 1fac 4dbd d770 9abc
00000180: b133 aabd 7ca4 c5bd bd89 e6bd 01ac c33c
00000190: 8388 47bc 8e6a 893c 5665 44bd 78a7 fcbd
000001a0: a137 05bd 637a 243e fbaf 8b3d 2a72 7f3d
000001b0: 1999 6abd bf39 2f3d 25ea 233c 71ce 823d
000001c0: ab06 7c3d babb 163d a004 89bd a27d 043e
000001d0: 1532 a9bd 7b9e b1bc 9b05 ce3d 8552 26bd
000001e0: a791 983c 1121 99bd 121b 973d e449 563d
000001f0: 769b 7f3d 2fca 5d3d dfaa 223c be49 033e
00000200: 2487 723d 4663 a13d 37d6 0e3d 4037 7f3d
00000210: cbb0 a13c 17b8 00be f509 d23c 4efb 87bd
00000220: 563b b9bb 2f2f 97bd 0cd9 49bd 9940 17bd
00000230: ff8c ff3d 1fa3 82bd ae9d 203c f7a2 0fbd
00000240: a45b 303e 8f7d 7abd bef0 633d fe91 2bbd
00000250: dd24 733d 7983 81bd b5fb 423d 4e85 c43d
00000260: bf4c e93b 9928 7d3c 4dfc 40bd 90b9 43bd
00000270: ecd1 06be 2d40 36bb bdf5 1d3c 2606 123e
00000280: ab9e 033d c60b 90bb 7a4d 993d d4a4 063d
00000290: b96d 3abe c1e5 453c 9238 e93d e9a5 953d
000002a0: 1b40 43bb 9812 0cba cdcb 003d 6b65 fbbc
000002b0: 7792 e0bd 1270 85bd afec 6abd 44ed 8b3d
000002c0: 434b dcbc 4b9c be3c 1c68 fcbc 8620 ac3c
000002d0: 53a3 f6bd f190 9bbd 724c 8abd 5732 9c3c
000002e0: 90e8 d83d ee79 7639 355d ca3d ec28 d63d
000002f0: 6d92 313d fbea a6bb 7959 453d 2932 dd3c
00000300: 93c2 df3d 3e23 9fbd aa10 bd3d 74b9 acbb
00000310: 39e3 aebd c75f 9d3d d9d5 143e daa7 b53d
00000320: 50c1 603d 1a2e 61bc 0969 13bd 65d3 193d
00000330: 9f79 6b3c 3c22 5fbd dc3b cebc 48f7 95bd
00000340: dd99 933d 389a c13d 98c8 343d b3d1 063e
00000350: 1d1e 9ebc 0c09 8ebd f47d 033e 9dfb 253d
00000360: 374c 8fbc ad49 8d3d 8bad bcbd 3621 c0bd
00000370: 31aa 9b3d cff1 52bd 4092 673c ccfc f33d
00000380: 93be 073e 0f70 8e3d 2e8a 64bc 90e7 abbd
00000390: 6229 38bd abe7 043d a70c 50bd 2b34 05be
000003a0: 1979 aebd 7bab cb3d a8c2 b13c 7c88 9ebd
000003b0: 408e 68bd eea2 89bd b1c7 063e efbe d7bc
000003c0: b312 f8bd 1c2c 09be 3ae8 6d3d 0ac1 d23d
000003d0: 1287 7e3d 8077 a13d 8fb0 0c3d fe44 f2bd
000003e0: aff0 08bd eab9 fd3c 5f46 223e 027f 1f3d
000003f0: 4db1 823d 8467 bc3d 5a93 4bbd 8288 f7bd
-0.077807344 0.04223892 -0.099920265 -0.08334858 -0.043759573 -0.06834226 -0.07988451 -0.008407732
0.1417189 0.026416121 -0.02913816 -0.0744015 0.036520682 0.104669765 0.06931663 0.12042718
0.09976611 0.07562779 -0.11630924 -8.055483e-05 -0.027453972 -0.0065254257 -0.0438038 -0.03101421
-0.055202212 0.017571261 -0.11625649 -0.15545863 0.009549236 0.09166803 0.07210351 0.10079913
-0.15421385 0.0674068 -0.059003625 0.07207301 0.10120158 0.064396136 0.072851084 -0.07983852
0.084421545 -0.10475612 -0.069992326 0.012805598 0.11243435 0.04318943 -0.10944447 0.09063747
-0.03804611 0.033228833 -0.11404392 -0.09088666 -0.051189907 -0.014875433 0.026311887 -0.06834482
-0.05396592 0.108570784 -1.6533872e-05 -0.07444398 0.020913681 0.026853459 -0.023497317 0.012714326
0.10418145 0.08141961 -0.036885146 0.06826551 -0.014805558 -0.06035364 0.027973576 -0.08027635
-0.002930242 0.05882383 0.047803517 -0.0032681003 0.10923467 0.058287807 0.07518009 -0.10242487
0.076502405 0.018564148 0.08780827 0.2102946 -0.08820844 0.14996961 0.0332363 -0.057993203
-0.12838387 0.011035769 0.10486976 0.099037 0.054691225 -0.11477826 -0.050212976 -0.018852634
-0.083106406 -0.096505135 -0.1125674 0.023885729 -0.012178543 0.016774442 -0.047948204 -0.1233663
-0.032523755 0.16062312 0.06820675 0.062364735 -0.05727491 0.04277968 0.010004555 0.06387032
0.061529797 0.036800124 -0.06690335 0.1293855 -0.082615055 -0.021682015 0.10059663 -0.04060604
0.01862414 -0.0747701 0.0737821 0.05231656 0.06240412 0.054147895 0.009928434 0.12821099
0.05921091 0.07880263 0.03487226 0.06230855 0.019737622 -0.12570225 0.025639514 -0.066397294
-0.0056528253 -0.073820464 -0.049279258 -0.03692684 0.12478065 -0.06378769 0.009803219 -0.035067525
0.17222458 -0.0611549 0.05564951 -0.041887276 0.059361327 -0.063239045 0.047603328 0.09595738
0.0071197446 0.015451574 -0.047115613 -0.047784388 -0.13166016 -0.0027809248 0.009641108 0.14260158
0.03213374 -0.0043959348 0.074854806 0.032872036 -0.18205918 0.012078703 0.11387743 0.073070355
-0.0029792849 -0.0005343347 0.03144436 -0.030688008 -0.10965436 -0.06515516 -0.057354625 0.06832364
-0.026891356 0.023267886 -0.030811362 0.021011602 -0.120428704 -0.07596005 -0.06752862 0.019066973
0.10591233 0.0002350581 0.09881059 0.10457024 0.043352533 -0.00509393 0.04818103 0.027001457
0.10925784 -0.07770394 0.09231694 -0.005271131 -0.08539433 0.07684284 0.14534701 0.08869906
0.054871857 -0.013743902 -0.03598884 0.037555117 0.014372258 -0.054476008 -0.025175028 -0.07322556
0.072070815 0.09453243 0.044136614 0.13165931 -0.019301469 -0.06935319 0.12841016 0.04052316
-0.017492397 0.06898818 -0.09212788 -0.093813345 0.07600821 -0.051500138 0.01413399 0.119134516
0.13256292 0.06954967 -0.01394896 -0.083937764 -0.04496134 0.0324475 -0.050793316 -0.13008182
-0.08519191 0.09944817 0.021699265 -0.07740876 -0.056776285 -0.067205295 0.13162114 -0.026336161
-0.121129416 -0.13395733 0.058082797 0.102907255 0.06214053 0.07884121 0.034348067 -0.118295655
-0.03343266 0.03097244 0.15847157 0.038939483 0.06381474 0.091994315 -0.049701072 -0.12086584

hist_encoder.bias_ih_l1 f4 [256]
00000000: f676 fb3c 842d e03d b9f1 853d 3f21 e73d
00000010: 7eee d03d f725 8c3c 00d6 ef3d f60d 093d
00000020: 1a40 1f3e 4706 b4bd daa3 54bd 5572 583d
00000030: 680c 0c3e f7d3 06bd e501 09bd 256b 1b3d
00000040: 6914 3e3e 8dd5 2b3e 5062 013e 7993 f93d
00000050: a03f d43d 0052 ac3d 7ace 203e 434d a5bc
00000060: a281 b23d 5919 b23d 1dd1 733c 7f04 e43d
00000070: 60eb 59bd f2ac 0a3c 2a37 f83d 74c6 0d3e
00000080: 2c63 f5bc ea35 d13d e0bb 673c d22d b2bd
00000090: 37d7 243e 15df 163e 21fc 043e 65b2 b23d
000000a0: 2c7b 943a 02cb 273e f34f 513d 47cd c7bd
000000b0: 4ff6 d93d 704b 9bbd 37a5 7d3d a434 81bc
000000c0: dd3b 813e 95fb 003e 76ab 903d 3e57 43bc
000000d0: 7ba2 dc3d 45aa 8bbd 00ef d4bb 04e9 cabd
000000e0: 91f5 173c 1020 fa3d 72e1 f23d 7569 0abd
000000f0: 9212 dc3b 55bf 103e 9405 81bd 37e4 57bd
00000100: 11a9 e43d ba22 483d f4e5 d5bd 079c f9bd
00000110: 17e6 263d c125 35bd 0d72 8cbd f3a0 f93d
00000120: 0dd2 513d 8091 aa3d d7e4 4d3d 6bc2 6e3b
00000130: e70a f5bd 36ce 523d c9bd 09bc b32b cdbc
00000140: 02e7 173d 4f9d 423d 0a14 033d 495c bcbd
00000150: d058 153d a5f8 a53d 3988 f1bc 62d0 c83d
00000160: a0a8 5fbd eaee a8bd dd29 b63d 92e9 2dbd
00000170: 5e0f cf3d 7b22 973d 0c13 dbbc a01a e5bd
00000180: 1242 43bd e2ea 413d 3edb a73d bc6c 4a3d
00000190: f32c f73d ca2d 95bc 11a4 9c3c ea1e bf3c
000001a0: 83e5 b3bd 5a42 65bd 9e7e 903d 45c2 b63c
000001b0: 186f 303d 7279 1dbc 5f78 9a3d f0f6 ee3c
000001c0: bade 0fbd 5054 c3bd 7918 b7bc eb43 68bd
000001d0: 4b74 153d 0c19 70bd b7b4 a5bd eaf6 1bbd
000001e0: cbfb e0bd 2ee4 8c3c d8cc dabd 9843 35bc
000001f0: f247 adbd 84b0 0cbe e44b 053e 920f ef3d
00000200: 3762 bebd f9ed 613c 8088 f6bd 8731 b4bd
00000210: f757 f9bd 7936 b8bd 4205 fc3d a6e5 983c
00000220: 503f 833d e780 94bd dab2 453d 74bd 513d
00000230: 2a07 663d 873f 31bc 63ef 7cbd d1b4 253d
00000240: fe1d f03d 6e54 f6bc 7640 dc3d f3eb 243d
00000250: 8057 c03b 3625 b43d 0ebc c1bc 2468 d23c
00000260: a539 07bd b3b2 8dbd 664b 8e3b d9d9 4f3d
00000270: 0f82 afbb f1f1 0d3d ea9d 94bc ef01 dd3d
00000280: 8b21 cebd 2a87 03bc 4e2f 0f3b f604 283d
00000290: 1979 4bbd cd1b ad3c 1291 dabd f46d 923c
000002a0: 7253 03bd 8e66 ba3d 8ecc f93d 9493 d53d
000002b0: 7fa2 8dbd 309e 683d ab16 b5bd eef0 2c3c
000002c0: 908e 433d 9ff5 e2bd c9e5 d9bd 4227 0f3c
000002d0: d8de 7e3b 38a6 cebd 0f0a 8f3d 0c47 7c3d
000002e0: ebe0 2cbc d6e1 52bd 3a15 3a3d 3ee0 72bd
000002f0: f782 07bd 19b2 19bd 82ca 5f3d b7a7 f03c
00000300: 6610 80bd 72e3 a2bd f4fe 9fbc 0b60 bfbd
00000310: 205a 823c 465b c2bc c916 efbc f864 ddbd
00000320: e3c9 283e 56d7 53bd e07f 383c cce9 cf3d
00000330: 6ead 933d 097e 75bc 935d e93c 1463 1bbd
00000340: 03f1 223e 902e b13d a99c 9e3d 9ac5 c63c
00000350: 48de 0d3c 7596 b93b a5b6 3a3e 97ba c83c
00000360: b893 ba3d 59fd 213e b026 2fb7 5421 393d
00000370: b9c6 cabb 1209 ec3d 1bd8 a73c 0c8a 0a3e
00000380: 0df6 ad3d 2994 8a3d eb9d 43bd 64bf ad3c
00000390: 829a a0bb 0fbf c9bc 70f1 b13d fe3d 38bd
000003a0: 8b5a d2bc 9c6d 683e 3b1e 35bd e4b6 d2bd
000003b0: 47b2 22bd 58f6 d13c 473a 59bd d524 c6bd
000003c0: bc94 123d 3fc3 d03c aab6 2e3d 8e88 94bd
000003d0: c072 97bd 3a06 333d fc99 eebd 2c02 73bd
000003e0: 7764 0bbd 0818 cebd e121 223d 0511 93bc
000003f0: e71c a93d a53c ba3d a568 a53d a6f7 f23b
0.030696373 0.109461814 0.065402456 0.11285638 0.10201739 0.017107947 0.11710739 0.03346058
0.15551797 -0.0879026 -0.051914074 0.05284341 0.13676608 -0.03291699 -0.033449072 0.037943978
0.18562473 0.16780682 0.1263516 0.12186331 0.10363698 0.08414078 0.15703765 -0.020178443
0.08716132 0.08696241 0.014881399 0.1113367 -0.053202987 0.008464085 0.12119897 0.13845235
-0.029954515 0.102153614 0.014143914 -0.08700146 0.16097723 0.14733537 0.12986805 0.08725432
0.0011328212 0.16386035 0.051101636 -0.097559504 0.10642683 -0.07582748 0.06192514 -0.015772171
0.25240985 0.12595971 0.070639536 -0.011922656 0.10773178 -0.06819586 -0.0064982176 -0.099077255
0.009274856 0.12213147 0.118594065 -0.033791978 0.006716081 0.14135487 -0.06299892 -0.052707877
0.11165059 0.048861243 -0.10444251 -0.12187963 0.040746775 -0.044225458 -0.06857691 0.12188902
0.05122571 0.08328533 0.050267067 0.00364318 -0.1196497 0.05146619 -0.008407065 -0.025045251
0.03708554 0.047513302 0.032001533 -0.091972895 0.03646165 0.08104066 -0.029483901 0.09805371
-0.054604173 -0.08248694 0.088947035 -0.042459078 0.10110353 0.073796235 -0.02674248 -0.11186719
-0.04767043 0.047343142 0.08196114 0.049420103 0.1206912 -0.01821031 0.019121202 0.02333017
-0.0878401 -0.05597148 0.070554 0.022309432 0.043074697 -0.009611474 0.0754249 0.029170483
-0.035124518 -0.09537566 -0.022350537 -0.056705397 0.03648786 -0.058617637 -0.08091109 -0.038077272
-0.10985526 0.017198648 -0.10683602 -0.011063479 -0.08460988 -0.1373921 0.13017231 0.11672892
-0.09296077 0.013789647 -0.12037754 -0.08798509 -0.12174981 -0.08994765 0.1230569 0.018664192
0.0640856 -0.07251149 0.04826627 0.051206067 0.056159176 -0.010818369 -0.061751734 0.040455643
0.117244706 -0.030069556 0.107544824 0.04026408 0.005869806 0.0879616 -0.023649242 0.025684424
-0.03301396 -0.0691885 0.0043424843 0.050744865 -0.0053560804 0.03465456 -0.018141706 0.107913844
-0.100649916 -0.008027831 0.0021848264 0.041020356 -0.049676035 0.02113142 -0.10672201 0.017874695
-0.032062 0.09101592 0.12197219 0.10428539 -0.06915759 0.056791484 -0.08842214 0.010555489
0.04774338 -0.11082005 -0.10639531 0.008737387 0.003889015 -0.100902975 0.069843404 0.061591193
-0.0105516715 -0.051484905 0.0454304 -0.059295885 -0.033083882 -0.037523363 0.054636486 0.029376848
-0.06253128 -0.07953538 -0.01953075 -0.093444906 0.015912116 -0.023725163 -0.02918567 -0.10810274
0.16483264 -0.051719032 0.0112609565 0.10152015 0.072108135 -0.014983662 0.028487002 -0.037936285
0.15912251 0.08651459 0.07744724 0.024264146 0.008658953 0.005663688 0.18233736 0.024503035
0.09110206 0.158193 -1.04398205e-05 0.0451978 -0.0061882404 0.115251675 0.02048879 0.13529223
0.08494196 0.067665406 -0.047758024 0.021209426 -0.0049012313 -0.024627237 0.08688629 -0.044980995
-0.02567794 0.22698063 -0.044218283 -0.1028879 -0.0397208 0.025630161 -0.053034093 -0.09674994
0.035786375 0.025483726 0.04265467 -0.07252608 -0.07394934 0.04370711 -0.11650464 -0.059328243
-0.034031358 -0.10063177 0.03958309 -0.017952451 0.08257466 0.09093598 0.080766 0.007414776

hist_encoder.bias_hh_l1 f4 [256]
00000000: f705 16bd d907 40bd ccd2 233e 44da 73bd
00000010: bc67 11bb 391d bfbc 655f 233d 0c76 a4bd
00000020: dc52 afbc efaf e43d b886 3ebd 82a1 a63c
00000030: 6424 0a3e 1456 e1bd cea7 743d 16d2 81bd
00000040: db07 a93d 5c17 9e3c 7e05 c63d 9206 073e
00000050: 5f5c 433e 60ac f03b 0817 2e3e 57c7 2f3e
00000060: 24c3 7e3c 77d5 1b3e 3bb3 233e c517 303d
00000070: 97db 93bd 795f 003e 0ec6 5f3b a5a4 29bd
00000080: 611a bd3d 9795 9b3d 1669 a53c 6259 71bd
00000090: eb0f e83d 2aab 903c 3be3 8cbd 25dc 05bd
000000a0: d520 f63c 95af a63c dd79 c83d 93f2 f4bd
000000b0: 7d54 853b 1c70 523d 94bd d83c a7e9 61bd
000000c0: a50c 2f3e 0cf9 133d 2ab3 813d 8adc 983c
000000d0: 24de 893d 75c3 b93d 95d1 e4bd ba30 7bbd
000000e0: 5c56 03bd 7f15 773d 5d54 3dbb 0e12 fd3d
000000f0: dbea d33d 5a17 3c3e dde5 463d 6519 9a3d
00000100: 3896 633d b051 afbc b5da c6bb bffd febc
00000110: f345 c83d cf0d 303d db87 c4bc bf99 c83d
00000120: 9bfb e1bd 446f c8bd eb39 edbb c3c6 823d
00000130: 1314 82bc 96a1 6abd 34e6 0c3e a2bc 2cbc
00000140: 1b55 a43d f656 83bd 4232 2fbd 5afc 423b
00000150: 82e9 72bd f607 603d 9b0b 64bd 5eac 813d
00000160: d49b 95bd e0b8 aebd c531 c4bd e582 e03c
00000170: 1b07 0d3d eff8 c3bd 79d7 153e 3c76 aa3d
00000180: 3643 92bd b325 743e b428 5ebd 2443 cf3d
00000190: e53b c7bd 718d 1f3e 7c97 d93d 1e13 853d
000001a0: 33f2 b73d e2fc 70bd 7688 f03d cb24 6b3d
000001b0: 9756 f0bb 49fb b63d 1f6f 8ebd 763a fa3c
000001c0: 703c 903d 9c7e bd3d 82cd ab3d 833e bfbc
000001d0: 886d b93d 0a1c 9e3d 3176 513d 67ea 2fbd
000001e0: 0b14 aa3d d087 e4bc 0ac5 583c 647c 003e
000001f0: db07 8d3d 23db 2ebb 42f0 283e 330c 27bd
00000200: 1747 9c3d 8bc0 5dbd 1a28 9a3d 1bf0 8b3d
00000210: 51e1 15bd b7d9 e5bd 1891 bf3d 0250 0cbe
00000220: 2c9a 603c 5b79 f6bb ac56 dcbd 3efe 793c
00000230: b0e0 92bd 3094 75bd 3552 f33d 3ad3 1f3c
00000240: a7d9 883d d496 9ebd 980a 6f3d cf5e 063e
00000250: d793 dabc 06bb 63bd 4058 4e3d 9c13 3c3d
00000260: 3b2c 05be a076 bfbc 334c f6bc 8f7a 4dbd
00000270: 5227 05be f154 803c 8835 1dbd f83c f13c
00000280: a2e3 0fbd 77ff bb3d dc99 58bc 4ef6 ce3c
00000290: e687 dbbd 24fd 06ba 33e1 923c 3b1a 75bd
000002a0: 08bf f43d 0c50 c93d 7daa 833c 92e8 9fbd
000002b0: 24fa 973d 2495 a8bd c789 9d3d 7d49 3a3d
000002c0: 6eb3 e4bd f16e f13c 192d d83c 81a0 fdbd
000002d0: b764 00be 8c95 e3bd 57e1 e53c a8e4 cbbd
000002e0: a990 063e 135e 133e 9bae f23d 04c5 713d
000002f0: 985a 3d3c adb1 8cbc 0667 62bc c829 99bd
00000300: 4f4e cb3d 3673 af3d c220 9eb8 0fad d73d
00000310: 07c2 433d ada8 ee3d 199f 08bd d40f 95bd
00000320: 9ec5 143e 7c5e 293d 06e3 3abd 434d e13c
00000330: 1e2f a83d 86b3 02bb 410f 84bd 98e5 c6bd
00000340: c0ba 753c 1a6e 3e3d eacb 1f3d a43b 17bd
00000350: 2c5e 0c3e 8ffd 17bd a39b f63d 28af b93d
00000360: e6fe d33d c201 c53b f9d2 2c3e 3d47 713e
00000370: 3fa5 863d f6a9 a23d 5d72 0cbc 7ed7 303d
00000380: bd81 1c3e d01e 943d 9bdb 113d bc2d d93d
00000390: 5a32 b63d e5e8 5e3d 9366 153e b6b1 cfbc
000003a0: 6025 cd3d e484 5c3e 1d50 a03c 9938 e0bc
000003b0: 3329 7b3d 9570 983d 367d 933d 1f4a 3e3d
000003c0: f2bf 693e 90bf ed3d 5b63 fb3b 6295 803d
000003d0: 2884 e93d 2c4a d23d 9637 a6bd 3cd3 ee3d
000003e0: 33ac acbd 7bc6 dbbc 1aa2 9e3d 8dcf ecbc
000003f0: 2b0b da3d 4211 c23d 5c2a 0e3e 7503 e93c
-0.036626782 -0.046882484 0.15998381 -0.059534326 -0.0022187075 -0.023329364 0.039885897 -0.08030328
-0.021401815 0.11166369 -0.046515197 0.020340685 0.13490444 -0.11002746 0.059730344 -0.06338899
0.082534514 0.019298248 0.09669016 0.131861 0.19078206 0.0073447675 0.17000973 0.17165886
0.015549455 0.15218149 0.1598634 0.04299142 -0.07219618 0.1253642 0.003414515 -0.041416783
0.09233547 0.075968914 0.02019171 -0.058923133 0.11331161 0.017659742 -0.06879278 -0.03268065
0.030044952 0.020347396 0.097888686 -0.1196033 0.0040689097 0.051376447 0.026457585 -0.05515447
0.17094667 0.03612618 0.06333001 0.018659849 0.06731823 0.090704836 -0.11172787 -0.061325766
-0.03206478 0.060323235 -0.0028889396 0.12356959 0.103475295 0.18368283 0.04855906 0.07524375
0.05556318 -0.021401256 -0.0060685524 -0.031126855 0.09778967 0.04298192 -0.023990562 0.0979495
-0.11034318 -0.09786847 -0.0072395704 0.06385567 -0.015878713 -0.057283007 0.1375969 -0.01054302
0.08024045 -0.06413071 -0.04277254 0.0029752464 -0.05930472 0.054695092 -0.05567513 0.063317046
-0.073051125 -0.08531356 -0.09579805 0.027406165 0.034430604 -0.09568965 0.14632978 0.08323333
-0.07141726 0.23842506 -0.054238036 0.10120228 -0.09728221 0.155813 0.106245965 0.06497787
0.08981743 -0.058834918 0.11744778 0.057408135 -0.007334541 0.089346476 -0.069547884 0.030545454
0.070427775 0.092526644 0.08388807 -0.023345238 0.090540946 0.07720192 0.051138107 -0.042948153
0.08304604 -0.027896792 0.0132305715 0.12547451 0.06886264 -0.0026680909 0.16497901 -0.04078312
0.07630747 -0.0541387 0.0752718 0.06832906 -0.03659183 -0.112231664 0.09353846 -0.13702396
0.013708632 -0.007521791 -0.10758719 0.01525837 -0.07171762 -0.059955776 0.11880914 0.00975495
0.06682139 -0.07743612 0.058359712 0.13122104 -0.026681824 -0.05559828 0.05037713 0.04591714
-0.13005154 -0.023371994 -0.030065631 -0.05016571 -0.13003281 0.015665503 -0.03838113 0.029448017
-0.035129197 0.091795854 -0.013220277 0.025263932 -0.1071928 -0.0005149415 0.017929649 -0.05983947
0.11950499 0.09829721 0.016072506 -0.07808031 0.074207574 -0.08231571 0.076922946 0.04548024
-0.11167036 0.029471846 0.026388692 -0.12384129 -0.1253842 -0.11112508 0.028061552 -0.09955722
0.13141121 0.14391355 0.118497096 0.05902578 0.011557244 -0.017174566 -0.013818508 -0.07478672
0.099270456 0.085668966 -7.540129e-05 0.10531055 0.04779246 0.11653266 -0.033354852 -0.072784096
0.1452851 0.041349873 -0.045626663 0.027502662 0.08212112 -0.001994343 -0.06448222 -0.0971176
0.014998138 0.04649172 0.039012827 -0.036922112 0.13707799 -0.037107047 0.12041404 0.090666115
0.103513524 0.0060121724 0.16877355 0.23562331 0.06574487 0.07942574 -0.008572188 0.04317426
0.15283866 0.072324395 0.035609823 0.10604426 0.088963225 0.054421324 0.1458991 -0.025353294
0.10016894 0.21535069 0.019569451 -0.027370738 0.061318588 0.07443348 0.072016165 0.046457406
0.22827128 0.11608803 0.007671756 0.062784925 0.1140216 0.102680534 -0.08116071 0.116613835
-0.08431282 -0.026828041 0.07745762 -0.028907562 0.10646661 0.09475948 0.13883346 0.028444031
